checkpoint_critic.pth (torch_old, 236149 bytes, 7 tensors)

fcs1.weight f4 [256, 33]
000000 4f 8f 58 3d d5 f4 fe bd 8e 93 81 3d ee 87 0b bd
       0.052871045 -0.12449042 0.06326972 -0.03406518
000010 dd 01 47 bc 93 2b a3 3b f5 af 69 bc f3 95 aa 3b
       -0.01214644 0.0049795597 -0.014263143 0.0052058636
000020 d2 94 bb bd b3 cd 29 be ca 30 a7 3d 2e ac 9b 3d
       -0.091592446 -0.16582374 0.08163603 0.076012
000030 e5 ae ad bc af aa cc 3c 1f 1c e7 3d bb b0 4e bd
       -0.02120156 0.024983732 0.112846605 -0.050461512
000040 6e 21 e5 bc fc dc ff bc d4 e8 dc 3c 97 41 b6 3b
       -0.027970042 -0.031233303 0.02696649 0.005562018
000050 05 47 9c 3c 44 e9 4e 3c 30 6a 28 3d 0e 0c 1b bd
       0.019076834 0.012628857 0.041116893 -0.037853293
000060 ca 21 23 bc 84 95 84 bc c3 45 ae bd a8 0d dc bc
       -0.009956786 -0.016184576 -0.085094 -0.02686198
000070 0b dd 26 3d 84 91 cd 3c 7c 88 4e bd 00 24 20 3c
       0.040738147 0.025093801 -0.05042313 0.009774208
000080 d3 fe 06 be 89 64 69 bd b7 b7 9a 3d 76 24 cf 3d
       -0.13183145 -0.056980643 0.07554572 0.10114376
000090 3a 64 2a bc 09 46 a1 bc 43 79 fc 3b 13 15 8c bc
       -0.010399872 -0.019686716 0.007704885 -0.017099893
0000a0 8d c8 52 bc b7 bd 0c bd 49 f7 5e 3d b1 61 99 bc
       -0.012865198 -0.034360614 0.05443505 -0.01872334
0000b0 73 d2 84 ba bc cb e8 3a ab cd 9f 3d 1c ed da bd
       -0.001013352 0.0017760913 0.078029 -0.10689756
0000c0 1f 20 0e be 54 45 c0 ba 05 09 fe 3b e6 43 b9 bc
       -0.1387944 -0.0014669099 0.00775254 -0.022615384
0000d0 05 61 1a 3b ec 22 4e 3b 29 55 83 b9 18 a3 82 bb
       0.0023556363 0.003145392 -0.00025049716 -0.0039867274
0000e0 fa 95 99 3b 6a 4d fe bc e1 ca ac bc 9a 01 1f bd
       0.004687068 -0.031042773 -0.021092834 -0.038819887
0000f0 aa c7 e6 3d d0 59 a6 3d 20 58 b2 3b a3 01 a9 3a
       0.11268552 0.08122599 0.005442634 0.0012894165
000100 3a bb 7a 3d 7d de ad bd fe e9 6e bd 76 d6 54 3d
       0.06121371 -0.08489702 -0.05832862 0.05196234
000110 7e b7 54 3b 54 82 c9 bc bb 60 6f bc 8b 0f 03 bd
       0.0032458003 -0.024598278 -0.014610465 -0.031997245
000120 1a 07 12 3d 34 00 ae 3c 37 c7 03 3d 92 f5 d6 bc
       0.035651304 0.021240331 0.032172408 -0.026240144
000130 0d f7 66 bc 05 b0 15 bd 62 e0 ad bc 25 65 04 3d
       -0.014096987 -0.03654482 -0.021225158 0.03232302
000140 ca fd 89 3a 6b 68 a5 bd d8 73 f5 3c a0 ba b9 3b
       0.0010527906 -0.08076557 0.029962465 0.0056679994
000150 cf 6c 61 bd f5 e0 bd 3c bb 7f 83 bb bc 4a 4e bc
       -0.05503541 0.023178557 -0.0040130294 -0.01259106
000160 8b b6 d9 3b ad ba d2 3c 1f 6a 71 b9 bb a2 88 bd
       0.0066440753 0.02572378 -0.00023023084 -0.066716634
000170 6b f8 6f bd fb 49 93 3d 93 38 50 3d 48 c4 e8 3c
       -0.05858652 0.07191845 0.050835203 0.028413907
000180 ad b4 0b bd 90 33 89 3c 7c 6c 03 3f 02 2f 83 bd
       -0.034107853 0.01674822 0.5133741 -0.064054504
000190 27 61 81 bd 10 3b 88 bd 6a e9 2f 3c 17 34 08 bd
       -0.063173585 -0.0665189 0.010736803 -0.0332528
0001a0 36 a6 72 39 e9 fc b4 bd b6 08 0f 3d 60 c1 25 bd
       0.00023140837 -0.08837301 0.034920417 -0.04046762
0001b0 31 c1 05 3b 9a 2c 0a bd f6 07 bd 3b 9d a6 8d 3c
       0.002040934 -0.03373394 0.0057687713 0.017291361
0001c0 cd 8a cc 3d a9 b5 b0 3d cb e6 03 3e 90 c2 48 3b
       0.09987412 0.08628399 0.1288101 0.0030633546
0001d0 80 51 90 3b b6 32 ab bc f5 39 f6 bb 85 4c cb 3b
       0.004404247 -0.020898204 -0.0075142332 0.00620419
0001e0 e2 48 93 bc 81 9b 2c bc 5b a9 8a 3c a5 8d cc 3c
       -0.01797909 -0.010535122 0.016926458 0.024969885
0001f0 48 b5 e3 3b 26 e7 8c bd ab ce 9c 3b 2b 27 3c bd
       0.0069491006 -0.068800256 0.004785379 -0.04593579
000200 c0 98 a3 ba 93 98 86 3d be 2f 2d bd 6f 92 37 3e
       -0.0012481436 0.0657207 -0.04228186 0.17926954
000210 11 41 73 bb 19 a4 85 3b 69 a0 52 3d 25 ec 61 3d
       -0.003711764 0.0040784 0.05142251 0.055156846
000220 34 30 e6 3d 03 62 d1 bc 33 40 d0 3a 31 20 cc 3c
       0.11239663 -0.025559431 0.0015888273 0.024917694
000230 1d 4d 9f ba 92 04 6d 3c e3 d8 b0 bc 16 27 9a 3b
       -0.0012153719 0.014466422 -0.021587795 0.0047043664
000240 15 a8 b3 bc 3b a5 aa bd 14 5f de bc 6a e0 83 3b
       -0.021930734 -0.083322965 -0.027144946 0.004024555
000250 9b 4c 18 3c a0 4e 24 ba d3 59 f0 3c f0 3c 16 3c
       0.009295608 -0.00062678196 0.029339707 0.009169802
000260 99 7d 83 3c ed ff 03 3b 70 87 82 bc 2d fe d6 bd
       0.0160511 0.0020141557 -0.015933722 -0.10497699
000270 5e 25 20 bd 52 19 48 bd a9 52 0c 3d 35 6c a1 3d
       -0.039098136 -0.048852272 0.03425852 0.07881967
000280 2f e4 31 3b 14 a7 eb 3c 5f 20 8d bd 68 02 08 bd
       0.0027144065 0.028766192 -0.0689094 -0.03320542
000290 ca 8a 66 3e 42 c7 23 bc 6d 8a b0 bd d8 6c d7 3b
       0.22513881 -0.009996237 -0.086201526 0.0065742545
0002a0 09 fe b6 3c 02 c4 0f bc 27 38 e8 bc 37 0b 0b bd
       0.02233793 -0.008774759 -0.028347088 -0.033946242
0002b0 1f 93 37 3d 96 81 92 3d 2a 06 6e 3d 6b 9d e0 3b
       0.04481804 0.07153623 0.058111347 0.006854703
0002c0 06 a4 e6 bc 46 56 83 3c 7b 66 5e 3d c4 87 86 3c
       -0.028154384 0.01603235 0.05429695 0.01642216
0002d0 26 0c 79 bd 9e 13 85 bb 5f 58 8c 3c 4b c8 8a bd
       -0.0608026 -0.0040611764 0.017131982 -0.06776484
0002e0 19 c2 dd 3c ea 85 52 bb 1a 3d 36 3d f8 b9 9f bc
       0.027070092 -0.0032123276 0.044491865 -0.019497856
0002f0 ef 4f 6d 3c 91 0c 97 bc 0c 0a a8 bc dd 6c e3 3c
       0.01448439 -0.01843861 -0.020512603 0.027761871
000300 e2 d3 40 bd f3 e6 9d bd ea 79 0b bd 60 38 fc bc
       -0.047077067 -0.07710066 -0.034051813 -0.0307886
000310 f8 23 15 3c 43 3f 68 3e e4 50 a5 bd 1c 80 c9 3d
       0.009102814 0.22680382 -0.08072069 0.09838888
000320 e6 84 28 3a b1 8e 5c 3c a1 0c c5 bc 50 9d 3e 3c
       0.0006428495 0.013461755 -0.024053873 0.011634186
000330 99 4b a9 3d 3a 15 f0 3c 93 4f a4 3b 2b 04 5e 3d
       0.08266372 0.029306997 0.005014369 0.054203194
000340 11 ad a4 bb b8 b1 ee 3c 56 6f 42 bc d8 bd 02 3c
       -0.005025514 0.029137477 -0.011867365 0.007979833
000350 b0 13 7e 3d 17 18 8d bd 60 c6 2c 3c 6a 8c 00 bd
       0.062030494 -0.068893604 0.010545343 -0.03138391
000360 d0 cf 60 bd 73 35 fa 3c bf 10 a4 b8 2c b4 5a 3c
       -0.054885685 0.030543065 -7.8232486e-05 0.01334862
000370 22 9d 1e 3d 01 1f 5f 3d df 57 68 3d 45 96 b9 bc
       0.038724072 0.054472927 0.056724425 -0.022654662
000380 56 74 0d 3d 94 73 25 3c b1 dd 10 3d ba 8c 13 3d
       0.034534775 0.010098357 0.03536767 0.03602288
000390 9e be 1c bd 10 24 8a 3b 47 af 47 be 47 db 55 3d
       -0.038267724 0.0042157248 -0.19500457 0.052211072
0003a0 9a f0 b0 3c 04 b3 94 bd d5 72 0c 3d 2f 4e 2c bd
       0.021599103 -0.07260707 0.0342892 -0.04206675
0003b0 5f 9d a7 3b c3 cc 74 bc ee 40 c9 3d f4 6a 61 3d
       0.0051151956 -0.014941397 0.098268375 0.05503364
0003c0 af 50 3c 3c 35 9d 83 3d c2 42 19 bd b2 ca f7 bc
       0.011493846 0.06426469 -0.03741718 -0.03024802
0003d0 bf 17 7b 3d df bf 41 bc e7 ed b9 bc e6 36 6b bc
       0.061301943 -0.011825531 -0.022696448 -0.0143563505
0003e0 3f 66 28 bd 2c 73 df bc 4b a0 c6 bc 9f 69 82 bd
       -0.041113134 -0.027276598 -0.024246356 -0.06367802
0003f0 aa a5 99 bd 8f e0 76 bd 62 c3 b2 bc 4c 11 5a bd
       -0.07502301 -0.06027275 -0.021821681 -0.05323915

fcs1.bias f4 [256]
000000 c7 71 95 bd e8 9c 3f be 46 ae fa 3d 46 84 ca 3b
       -0.07297092 -0.18712199 0.12240271 0.006180319
000010 d8 73 4b 3c 29 6a 95 ba 4a 77 dc 3d a5 f6 30 bc
       0.012417756 -0.0011399436 0.1076494 -0.010800992
000020 09 fc e6 bd 39 be 22 3e c6 b9 cb bd b2 56 4d be
       -0.11278541 0.15892877 -0.09947543 -0.20052603
000030 b0 4e 98 3d d7 d8 88 bd 4d c3 07 bd fa 96 e0 bc
       0.074368834 -0.06681984 -0.033145238 -0.027415741
000040 79 96 7c 3c 66 38 23 bd 57 cd 0c be 32 ea 8d bd
       0.015416735 -0.039848708 -0.13750206 -0.06929435
000050 37 69 c7 3d 5c 5d b6 3d 01 fe 40 3d 7c c1 27 3d
       0.09736865 0.08904526 0.047117237 0.040956005
000060 06 4f 04 be 04 c4 d8 3c ed 09 40 be 72 29 f1 3d
       -0.1292077 0.026460655 -0.18753786 0.11775483
000070 a2 f9 24 3d 8f c5 55 be e2 28 16 3e 66 f8 05 3c
       0.04027713 -0.20876144 0.14664033 0.008176899
000080 34 b7 c2 3d 2e 5b d3 3d 9d 55 e5 bc 51 69 82 3d
       0.095075995 0.103201255 -0.027994925 0.06367744
000090 ce 6e 44 3e 41 ac c3 bd 5e 6e cc bd 44 b4 f6 bd
       0.19182894 -0.09554339 -0.09981988 -0.12046102
0000a0 28 13 be bc e8 f7 9f 3d 21 d3 f6 bd b2 f3 1d be
       -0.023202494 0.07810956 -0.120519884 -0.15424994
0000b0 d7 c9 46 be 9b ca d9 3c 9e 9a b7 bd 52 e7 a3 3d
       -0.19412933 0.026585868 -0.08965038 0.08003105
0000c0 b8 e8 53 bd 70 de 00 3e 1b 83 2d bc dd e7 74 bd
       -0.05173561 0.12584853 -0.01059034 -0.059791435
0000d0 42 04 e4 bd 83 a6 ec 3d 55 40 0b bd d6 36 b8 ba
       -0.111336246 0.11555197 -0.0339969 -0.0014054428
0000e0 1a 95 07 3e f4 73 18 bc b4 8f 73 bd e3 10 12 be
       0.13240471 -0.009304989 -0.059463218 -0.14264254
0000f0 19 b1 c7 bd aa 49 e0 3d bc b4 56 bc a1 fc 2e 3d
       -0.097505756 0.1095155 -0.013104614 0.042721394
000100 24 5d aa 3a 3f 96 80 be 59 f5 c3 bd a1 fa 1f be
       0.0012997729 -0.2511463 -0.09568281 -0.15622951
000110 06 cc ae 3d 82 7c 2f be 36 59 c7 3d f0 e0 8a bc
       0.08535008 -0.1713734 0.097338125 -0.016952962
000120 d7 be 95 3b 56 0b 08 3e 11 c2 67 3c f2 b7 d3 bd
       0.004569869 0.13285574 0.01414539 -0.10337819
000130 39 f0 1f 3e a3 4d e4 bd 46 13 96 bd f6 42 0b 3c
       0.15618981 -0.111476205 -0.07327895 0.008499851
000140 1e 08 3c bd 13 54 5e 3d 51 17 65 3d 9b 52 a4 3d
       -0.04590618 0.0542794 0.05593044 0.08023568
000150 04 44 36 bd 12 43 34 3e 65 51 01 be e1 66 d3 3d
       -0.04449846 0.1760371 -0.12628706 0.10322357
000160 13 da 84 bd ab e7 0b be 9e 44 08 be e4 70 94 bc
       -0.06486907 -0.13662593 -0.13307425 -0.018120237
000170 e3 a8 b6 3d 33 cd 44 3e f4 12 1c bd 86 d8 2f 3e
       0.08918931 0.19218902 -0.038104013 0.17172441
000180 8f 63 28 3e e3 4a e0 bd 60 bf b7 bd 26 57 0e be
       0.16444229 -0.109517835 -0.08972049 -0.13900432
000190 2e 37 3b be 1f 86 fb bd b1 c7 59 bd 20 66 40 bd
       -0.18282768 -0.12281441 -0.053168956 -0.046972394
0001a0 eb 00 5e be 04 0a c9 bd a7 af 34 bd be f9 18 3e
       -0.21680038 -0.098163635 -0.044112828 0.14939019
0001b0 05 73 1f 3e 17 37 56 be 01 6d c4 bc a4 d7 45 3d
       0.1557122 -0.20919453 -0.023977758 0.048301354
0001c0 0d 55 2f be 39 39 4b bd ce 36 9b bd 14 0d 83 bd
       -0.17122288 -0.04961512 -0.075788125 -0.06398979
0001d0 12 91 33 3e 7e 91 81 3d 0e 29 3d be 98 bf a6 3d
       0.17535809 0.063265786 -0.18472692 0.08142012
0001e0 ad 77 a8 3c 2d f8 0d 3e d9 47 83 3d 1e af bb bd
       0.020564878 0.13864203 0.06410188 -0.0916426
0001f0 70 64 fe bd 3e 52 b7 bd d5 f7 31 be 29 96 f4 3d
       -0.12421501 -0.08951233 -0.17379697 0.11942703
000200 31 fd 1c be 6e 2d 8a 3d 64 bc a8 3d 41 2f 2c be
       -0.1533096 0.06746946 0.08239058 -0.16814901
000210 8d b2 07 be 4a 09 78 bd 5a 92 b3 3c 34 e4 b6 3d
       -0.13251705 -0.060555734 0.021920372 0.08930245
000220 c4 75 12 be a8 bf 1a bd 90 54 b2 bd 0d 16 0e be
       -0.14302737 -0.037780434 -0.08707535 -0.13875599
000230 6d 23 0c be 59 61 42 bd de 50 28 be 68 87 93 bc
       -0.13685389 -0.04745612 -0.16437098 -0.018008903
000240 c5 13 58 be 0d 72 0f be fc 15 46 3d 9f 3e 12 bd
       -0.21101291 -0.1400835 0.04836081 -0.03570425
000250 f2 fe c3 bc 9b 5f 94 3d 0f cc 02 be 64 7f 0d 3e
       -0.023925278 0.07244798 -0.12773155 0.13818127
000260 29 6b f5 bd a4 b4 36 3d f0 c2 e6 bd cc 9b 1c 3e
       -0.1198333 0.044605866 -0.1126765 0.15293807
000270 85 ce 4a be 65 29 a1 3d 23 31 27 bd a2 c7 a2 3b
       -0.19805343 0.078692235 -0.040818345 0.0049676457
000280 19 59 37 3d e6 7c a4 3d b2 c8 a6 3b c1 60 76 bd
       0.044762705 0.08031635 0.0050898427 -0.060150865
000290 56 20 cc bd 40 ef 94 3d cd d7 d9 bd 7b 8b 2d be
       -0.09967105 0.07272196 -0.10636864 -0.16947739
0002a0 91 42 33 3e 37 46 07 3e b9 e2 78 bc 8c e2 10 3e
       0.17505862 0.13210379 -0.015190774 0.14148921
0002b0 49 0f 8a 3d 59 94 b4 bd 72 10 0d be 1e 58 72 3d
       0.06741197 -0.088173576 -0.13775805 0.059166066
0002c0 bf 38 0e bd e5 e7 12 be 3c ea 0e 3e 06 e4 59 be
       -0.034722086 -0.14346273 0.13956541 -0.2127839
0002d0 32 9e 37 bd c8 e4 f3 3d eb bd ed bd d8 85 4a be
       -0.0448286 0.11908871 -0.116084896 -0.1977762
0002e0 45 16 63 bd 66 ba 4a bc d3 1b 46 be e6 69 78 3c
       -0.05544116 -0.012373542 -0.19346552 0.015161967
0002f0 09 4f 46 3c e3 6c f9 3d 23 34 34 3d 9d 3f 86 3d
       0.012103804 0.121789716 0.043995034 0.06555102
000300 64 6b eb bd 48 3c 72 3a d0 22 02 3c 1c f2 6d bd
       -0.114950925 0.000924055 0.00794287 -0.05809222
000310 59 2b fd 3d 70 a6 fd 3c 03 7b 23 be bf 94 2a be
       0.123617835 0.030963153 -0.15964894 -0.16658305
000320 24 3d 88 3d 6a 90 40 bd 76 f2 c9 bd 56 08 85 3c
       0.06652287 -0.047012724 -0.09860699 0.016239326
000330 30 32 ef 3d ce 2d b3 bd 56 97 4b 3c b6 6b 68 bd
       0.116794944 -0.08748971 0.012426218 -0.056743346
000340 08 da e0 bd 6f a0 ce bc ac 1e d0 bd f4 64 15 be
       -0.10979086 -0.025222985 -0.101621 -0.14589292
000350 b7 ab 0c 3e 10 ee 94 bd 49 4f 97 bd 3c 33 74 3a
       0.13737379 -0.07271969 -0.07388169 0.0009315496
000360 f1 e8 97 3d 94 1c 46 bc 3c c5 4a 3e 4b f3 a4 bc
       0.07417477 -0.0120917745 0.19801801 -0.020135542
000370 b4 bd 5e bd 23 9e 46 3c 8e ac ff 3d 72 9f 16 be
       -0.054380134 0.012122664 0.12484084 -0.14709261
000380 06 23 a5 3d 4d d1 18 3e da cf f5 3d d2 51 5e bd
       0.08063321 0.14923592 0.12002535 -0.05427725
000390 fc e0 12 be 78 54 97 bd 80 35 a3 bd bb 33 eb 3c
       -0.14343637 -0.07389158 -0.07969189 0.02871119
0003a0 fe 59 81 bd d3 a0 8c 3d 93 6b 8b bd c5 90 b0 bd
       -0.06315993 0.06866612 -0.068076275 -0.086213626
0003b0 47 3d e2 3d 74 0c 94 3d ba d6 ea bc a0 6b 29 be
       0.11046844 0.07228938 -0.028666843 -0.16544962
0003c0 cb d5 00 be d7 fc 89 bd 60 a7 e3 3d b3 9d 1b 3c
       -0.12581556 -0.067376785 0.111159086 0.009498048
0003d0 5d fc a0 bd 14 59 21 bd 9d a5 bb 3d ad cc e1 bc
       -0.078606345 -0.039391592 0.091624476 -0.027563417
0003e0 eb 65 5e bd e5 da 11 3e 35 1c 27 be aa 62 32 be
       -0.054296415 0.14243658 -0.16319354 -0.1742045
0003f0 4e 0e 11 be b9 0c a5 3d 52 34 d6 3d 23 77 fb bd
       -0.14165613 0.08059067 0.10459198 -0.12278583

fc2.weight f4 [128, 260]
000000 28 d3 07 bd 9f b6 0d 3d a1 25 06 3d 18 7e 7c bd
       -0.03316036 0.03459799 0.03275073 -0.06164369
000010 09 e9 80 ba 41 87 5a 3d 5f 1c 10 3d b3 ca 05 bd
       -0.0009835075 0.053351644 0.035183307 -0.032664012
000020 11 1a 20 3a 25 79 90 3d d1 ac d0 3d 55 68 92 3d
       0.00061074 0.070543565 0.10189212 0.07148806
000030 9b 50 05 3c f4 e7 aa bc 0b d0 80 3d 0f f0 fe 3c
       0.008136894 -0.020862557 0.06289681 0.031120328
000040 8f a4 90 bd 15 29 34 bd 9c 6b ea bb 96 3b 4a bd
       -0.07062637 -0.04398449 -0.0071539413 -0.04937323
000050 da b2 a1 bd 75 21 d3 3d 75 d8 68 bd 14 d1 33 bc
       -0.07895441 0.10309116 -0.056847055 -0.010975141
000060 e9 93 34 3d fb 20 29 bd b5 3f 7a 3c 93 fb 9e bc
       0.04408637 -0.04129122 0.015273978 -0.01940707
000070 0b cd b8 3d 0b bf 91 bd e8 3f be 3d 34 55 46 be
       0.09023484 -0.07116517 0.09289533 -0.1936844
000080 64 3e 64 3d 30 9a 9b bd be 7d bb 3d 3f c3 70 bb
       0.055723563 -0.07597768 0.09154843 -0.003673747
000090 6a e9 e0 3d 48 f6 2f 3d bd 3d 00 be 10 ed 82 3d
       0.1098202 0.04295948 -0.12523551 0.06392872
0000a0 66 d7 70 bd 5e 8f a1 3c cd 7f 04 bd a9 6f 8a 3c
       -0.05879917 0.019721683 -0.032348443 0.016898947
0000b0 01 a0 3c bc b9 9a d3 bc ba be 83 bd ab 91 9e 3d
       -0.011512757 -0.025830613 -0.064328626 0.07742628
0000c0 a1 8c 00 bd f6 e1 ab 3d f2 3c d0 bb 92 58 a4 bd
       -0.031384114 0.08392708 -0.0063549215 -0.08024706
0000d0 4c c6 5a bc ed 78 7b bd c7 38 87 bc 71 55 62 bd
       -0.013352942 -0.06139462 -0.016506566 -0.055257265
0000e0 23 98 12 bd d6 38 11 bd 41 4e 01 be 0c 64 7a bd
       -0.03578962 -0.035454594 -0.12627508 -0.06113057
0000f0 60 89 c8 3b 2e 71 02 3d 0e e2 71 be 11 12 89 3c
       0.006119892 0.031846218 -0.2362139 0.016732248
000100 66 3a 3b be fe c1 7f bd bb 88 83 bd bc 55 10 bd
       -0.18283996 -0.062440865 -0.06422564 -0.035238013
000110 c0 ae 95 3c 8c 71 95 3d 1f 21 be bc bf e0 cf 3d
       0.018271804 0.07297048 -0.023209153 0.10150289
000120 e7 00 25 bd 65 72 89 3d 9a 9a 5f bc d9 a4 84 bd
       -0.040284064 0.06711272 -0.0136477 -0.06476755
000130 f8 41 e9 3c 11 99 85 3d 51 65 87 3d b7 21 84 3d
       0.02847384 0.06523336 0.066111214 0.06451743
000140 18 3a 27 bd 4d 7e f4 3d 28 46 bb bc 61 26 a6 3b
       -0.040826887 0.119381525 -0.022860602 0.005070493
000150 f2 f4 41 bc 2e 5e 8f 3d 04 7f 9f bb 05 bf 82 3d
       -0.011838185 0.07000385 -0.0048674364 0.0638409
000160 99 3b 0c be dc 88 aa 3d 04 bc e1 bd 48 23 2d 3d
       -0.1369461 0.08326885 -0.11022189 0.042269975
000170 a5 9a 24 3b 4b 04 8c bd 03 27 79 bc f2 fc de bc
       0.002511659 -0.06836756 -0.015207055 -0.027220223
000180 e4 82 77 3d a1 9e 57 3d e1 e5 b6 3d ef 1e 88 bd
       0.06042756 0.052641515 0.08930565 -0.06646525
000190 d2 22 48 bd 6a a4 85 3c 41 53 7e bd 5d b9 cd bc
       -0.048861332 0.01631375 -0.062091116 -0.025112802
0001a0 5f 54 15 3c 8c ab 32 3d 75 42 a1 bd 30 4f a9 bc
       0.009114354 0.04362063 -0.07874004 -0.020667642
0001b0 39 b2 a6 3d 35 68 f3 bd b0 df a2 bd 51 7a 53 bc
       0.08139462 -0.1188511 -0.07952821 -0.0129075805
0001c0 94 ac 15 bb 1a 57 0f 3d ba 30 59 bd d8 58 07 be
       -0.002283846 0.034995176 -0.053024985 -0.13217485
0001d0 da 26 71 bb 3d ed e0 bc 0e d3 76 3c 0e dd 6b bc
       -0.003679684 -0.027456874 0.015064968 -0.014395965
0001e0 91 fd 37 3d f7 eb 88 bb 07 82 a4 bc ed f4 e9 3c
       0.044919554 -0.00417852 -0.020081533 0.028559173
0001f0 a2 3e f8 3b 57 68 5d 3d 40 60 9d 3d b7 34 b7 3d
       0.007575826 0.054054584 0.07684374 0.089456014
000200 ef b8 d0 3d a1 80 84 bd c8 c6 95 bd c1 b1 65 3d
       0.10191523 -0.064698465 -0.07313305 0.056077722
000210 a5 50 d3 bb 38 53 84 3d 55 ed cc bd b3 10 31 3d
       -0.0064488226 0.06461185 -0.10006205 0.043228816
000220 12 be 39 3d 82 cc ce bc 51 31 04 bd 68 76 f4 bc
       0.04534728 -0.025244001 -0.032273594 -0.029841617
000230 43 46 5a 3b a8 da 21 3d b2 cd f2 bd fe 3f b6 3d
       0.003330604 0.039515167 -0.118556395 0.08898924
000240 a9 3c 28 bd 0c 37 87 bc fa 20 0a 3b f5 3b d7 bc
       -0.041073475 -0.01650574 0.0021076784 -0.026273707
000250 ed 3e 02 be 2d 8a e4 3c 92 13 93 bd 65 fa b6 bb
       -0.12719317 0.027897919 -0.07181467 -0.0055840486
000260 99 3f 4a bc 44 7b e2 3c 60 f0 c1 bb dd 76 9b bd
       -0.012344264 0.027646668 -0.0059185475 -0.07591031
000270 b2 df a9 3d 9f da 00 3d c1 ce 8d bc 44 be 67 bd
       0.082946196 0.031458493 -0.017310502 -0.056577936
000280 37 50 60 bd b7 08 09 be bc 6b a2 bc e4 85 dd bc
       -0.054764 -0.1338223 -0.019826762 -0.027041383
000290 76 f2 8b 3d fd 6c 0f bd 05 3b d4 3d 58 db 6c bd
       0.06833355 -0.03501605 0.103628196 -0.05782637
0002a0 16 e3 b7 bc c5 67 a0 bd fc 6f ab bd ae f7 73 3d
       -0.02244715 -0.078322925 -0.08370969 0.059562378
0002b0 e1 26 7b 3d da a0 61 3d a0 62 dd 3c 0f 9b 4e 3d
       0.061316375 0.05508504 0.027024567 0.050440844
0002c0 15 fc 6b bc e6 85 b4 3c 18 36 6d 3d d3 ad bc bd
       -0.014403363 0.022036504 0.057912916 -0.09212842
0002d0 ad c8 7e 3c 87 96 32 3d d2 02 bf 3d ba 1e 1c 3d
       0.0155507745 0.043600585 0.0932671 0.03811524
0002e0 ed b5 f8 bd c9 19 95 3c 09 4d d4 3c 37 89 2f 3d
       -0.121440746 0.018200772 0.02591564 0.042855468
0002f0 44 b2 ba bd 35 f2 90 3d 91 43 a3 3d 5d d5 55 3d
       -0.09116033 0.07077447 0.07971872 0.052205432
000300 8a 0b 25 3b c4 ae 37 be 5a b4 3a bd d7 be b7 3c
       0.002518388 -0.17937762 -0.045582153 0.022429867
000310 d4 55 19 3d 4e 37 38 bc c1 3e ea bc 46 75 06 bc
       0.037435368 -0.011243654 -0.028594377 -0.008206671
000320 16 26 ab 3b d2 4a 67 bd ab 8e c6 bc ca 7f 93 3c
       0.005223046 -0.05646784 -0.024237951 0.01800527
000330 de 1e c5 3d 83 6d ab 3d 06 fa 66 bb be ee f1 3c
       0.09625028 0.08370497 -0.003524424 0.029532786
000340 7d c5 ca 3c 92 49 09 3c 18 a3 a3 3d 71 66 9f bd
       0.024752373 0.008379357 0.07990092 -0.07783211
000350 58 30 0f bb c1 ee f4 bd 41 94 f1 3d 59 e8 14 3d
       -0.0021848883 -0.11959601 0.11795855 0.036354396
000360 eb 68 db 3c 94 cb 4f 3d d9 82 10 bd f9 66 68 bd
       0.026783427 0.050731257 -0.035281036 -0.056738827
000370 35 c1 12 bd 1d d5 d9 bc 1f 0f be bc 43 8f 0a bc
       -0.035828788 -0.026590878 -0.02320057 -0.008457008
000380 90 42 9c 3d 10 0e 43 bd 4c a4 b1 bc f6 fb 24 bb
       0.07629883 -0.047620833 -0.021684788 -0.0025174594
000390 d4 5d 02 be 16 65 c5 3d 25 d5 05 be 86 8d c3 bd
       -0.12731105 0.09638421 -0.1306959 -0.09548478
0003a0 fb 89 01 3d 00 ef cb 3d d4 59 d0 bb 7f 7f d9 3d
       0.03162573 0.09957695 -0.0063583646 0.10620021
0003b0 5f 54 a0 3d 5d ba 61 3c 09 49 58 bd 65 95 90 be
       0.078285925 0.013777343 -0.052804027 -0.2823898
0003c0 0d 3a da bd e9 49 b9 3b 2a e0 2a 3c 4b 7f 1c bd
       -0.106556036 0.0056545627 0.010429421 -0.038207334
0003d0 54 52 da 3d 31 bc b0 3d e1 66 b6 3c 3b 65 b9 bc
       0.10660234 0.08629645 0.022265853 -0.022631278
0003e0 80 fd 94 3d 01 15 0f bd d1 43 09 be f2 34 f6 3d
       0.07274914 -0.03493214 -0.13404776 0.12021817
0003f0 50 e6 87 3d 8a c7 31 be 06 16 f1 bc a3 54 f1 bc
       0.066357255 -0.17361274 -0.029429447 -0.029459303

fc2.bias f4 [128]
000000 b1 93 45 3d c1 2b 23 3d f2 08 30 3d f1 d1 31 3d
       0.048236553 0.03983665 0.04297728 0.043413106
000010 01 bf d8 bd 6e b5 9c 3d 8c fb 8b bd 1a bc 71 bc
       -0.10583306 0.076517925 -0.06835088 -0.01475432
000020 aa df 14 3d f7 7a d6 bd 7e 6a b4 bd 3e 6b db ba
       0.036346115 -0.104726724 -0.08809374 -0.0016740335
000030 25 97 cf 3d 3f 04 c8 3b 14 58 e1 3d b8 66 7c bc
       0.101362504 0.006104022 0.11003128 -0.015405349
000040 b9 01 c9 3d f5 19 99 bc 94 6d a5 3d 70 75 3a 3c
       0.09814782 -0.018689135 0.08077541 0.011380538
000050 2c 6f c0 3d 25 1b 98 3d 5e b2 81 3d a8 cc 36 3d
       0.09396204 0.074270524 0.06332849 0.04462877
000060 5f 72 5c 3d ec 4f 03 3d c9 b6 f4 bb 3c c8 23 bd
       0.05382001 0.03205864 -0.0074680788 -0.03998588
000070 31 7a 80 bc a7 cd b5 3d 19 c8 d4 bd 1b 27 20 3e
       -0.015683265 0.08877116 -0.10389728 0.15639918
000080 51 bf a9 3d 9c b5 d3 3d 68 ad a6 bd 5d e4 73 bd
       0.08288444 0.103373736 -0.08138543 -0.059543956
000090 bc 11 ba 3d 72 4d 9f 3d ab f9 86 bd 9c a0 20 3d
       0.09085414 0.077784434 -0.06590589 0.03921567
0000a0 64 cf 98 3d ec 09 fb 3c 27 19 cd 3c 19 e0 5f bd
       0.074614316 0.03064438 0.025036408 -0.054657076
0000b0 a8 51 6a 3d 56 45 8a bc 21 dc db 3c 9a 8e ce bd
       0.05720678 -0.016878765 0.026838364 -0.10085793
0000c0 04 1f 14 3e 6e 73 dd 3d 60 1b 0b 3d 1a 90 32 bd
       0.14464957 0.10813032 0.033961654 -0.043594457
0000d0 48 bf c6 3d ef 88 d7 3c c5 5c df bd 18 e6 b0 3b
       0.09704453 0.026310412 -0.10906366 0.005398523
0000e0 19 22 48 3d b0 1b 90 3d b8 fd ae 3d b3 f9 b5 3d
       0.048860643 0.07036531 0.08544487 0.08885517
0000f0 4b a3 6c bd f3 5d e4 3c 12 66 a4 bd 8e dd 44 3d
       -0.057772916 0.02787683 -0.08027281 0.048062854
000100 a2 f5 dc bd 0f 5c 04 3e 92 45 01 be 41 fb 2a 3d
       -0.10789038 0.12925743 -0.12624195 0.04174352
000110 f1 5e 7d 3d 6d 21 9d bd 8c 80 45 bb 58 a0 77 3b
       0.06185812 -0.07672391 -0.0030136434 0.0037784781
000120 57 cd 33 3c 08 97 25 bd 7b 04 12 3e 60 d1 bc bc
       0.01097425 -0.040427238 0.14259522 -0.023049057
000130 ee 62 b5 3d a2 3c 94 bd cc a4 a3 bd 0f 12 a5 3d
       0.0885676 -0.07238127 -0.07990417 0.08060085
000140 eb b0 1a bd 70 61 f3 3d 2b 61 10 3d d1 66 38 bd
       -0.03776638 0.11883819 0.035248917 -0.04501993
000150 04 f1 44 3d 0c a0 f5 3d 6d b2 71 bd 4a c0 89 3d
       0.048081413 0.11993417 -0.05900805 0.06726129
000160 62 9b 29 3c 83 83 30 3e ef a4 06 3c 05 08 a6 3d
       0.010351988 0.17237668 0.008218034 0.08106998
000170 8e 34 83 bd 4e cd 17 bc a3 2f 9d 3d b9 3d b3 ba
       -0.064065084 -0.009265257 0.076751016 -0.0013675011
000180 dc 70 f0 39 76 a4 f6 39 bb 1c 15 bd a8 cf a3 bc
       0.00045860454 0.0004704331 -0.036404353 -0.01999648
000190 c3 00 08 3d bc a9 17 bc 34 33 fa bc 8d 77 b6 3c
       0.03320385 -0.009256776 -0.030541994 0.022273803
0001a0 f0 b8 25 bb 63 6b 35 3e 00 a4 0c bc 1d 72 87 3d
       -0.0025287233 0.17716746 -0.0085840225 0.06613562
0001b0 b6 fe 07 3d 95 00 ac 3d a7 23 b9 3d a0 01 46 3c
       0.033201896 0.083985485 0.09040003 0.012085348
0001c0 9b 32 4f 3d 0f dd 2f 3e 35 c3 cc bc bc 75 0b be
       0.05058537 0.17174171 -0.024995426 -0.13619131
0001d0 49 91 50 bd 4b 56 d6 bd 89 3e 73 bd db e6 47 bd
       -0.050919805 -0.10465678 -0.05938581 -0.048804145
0001e0 f3 7f c1 3d bb 37 d4 3d e6 fc f9 3d d0 2d 76 bd
       0.094482325 0.10362192 0.1220644 -0.060102284
0001f0 35 52 fb 3d 60 f6 0d 3d 7a bc 7e 3d ac 4b 00 be
       0.12271539 0.03465879 0.062191464 -0.12528867

fc3.weight f4 [128, 128]
000000 38 0f 14 3d f9 be 2f bd a2 1e 96 bd e9 1e a3 3d
       0.036147326 -0.042906735 -0.073300615 0.0796488
000010 12 c1 3d 3d d1 77 aa 3d 90 6a 99 3b 0a 93 2c 3d
       0.046326704 0.083236344 0.0046818927 0.042132415
000020 3b 81 a5 bd c6 79 2b bd 00 64 4c 3b 31 72 12 bd
       -0.080812894 -0.04186418 0.0031187534 -0.035753433
000030 db f5 21 bd ea dd 36 bd 2e f3 ad bd 68 a3 33 3c
       -0.039541107 -0.044645227 -0.084936485 0.010964252
000040 82 af 27 3d f0 3e 25 bc 50 7b 87 bd d7 24 41 bd
       0.04093886 -0.010085806 -0.06615317 -0.047154274
000050 92 79 94 bd 7e 40 59 3d 31 98 a2 3d e0 c5 2e bb
       -0.0724975 0.05304002 0.079391845 -0.0026668236
000060 80 cc 3d bd 10 55 e7 3b c0 8c 94 3c be 50 a7 bd
       -0.046337605 0.007059701 0.018133521 -0.08169697
000070 18 81 b9 bc b0 f6 51 3c 00 48 9d 3c b0 76 af 3b
       -0.022644565 0.012815163 0.019199371 0.005354725
000080 00 af 44 bc 73 ec 09 bd a8 4e e1 bc 59 7c 8d 3d
       -0.012004614 -0.03367276 -0.027503327 0.06908483
000090 ef e9 86 3d cf 01 8c 3d 7e 21 d4 bc e6 95 5d 3d
       0.06587588 0.068362825 -0.025894877 0.054098032
0000a0 c2 38 5f 3d 48 e0 a1 bc 7a 60 3d bd b2 94 8a bd
       0.054497488 -0.019760266 -0.046234585 -0.06766643
0000b0 59 42 94 3d a1 06 96 3d b0 50 71 3c 1c af ed 3c
       0.07239217 0.07325483 0.01472871 0.029014163
0000c0 9e 86 a8 bd db 7c 8a 3d 08 1d 96 bd 42 86 48 3d
       -0.08228801 0.067620955 -0.07329756 0.048956163
0000d0 c0 f9 ba ba 44 4e 03 3d b8 5f 6e 3c 20 bb b7 3c
       -0.0014265105 0.03205706 0.014549188 0.022428095
0000e0 00 d0 5e 39 95 78 90 3d f7 73 98 3d e0 40 47 bb
       0.00021249056 0.07054249 0.074439935 -0.0030403659
0000f0 92 cc 6c bd 5d fd 09 bd 98 ca 7c 3c f9 28 0a bd
       -0.05781228 -0.03368889 0.0154291615 -0.03373048
000100 20 5a 29 3c c8 a7 ab bd 45 fd aa 3d 80 22 42 ba
       0.010336429 -0.08381611 0.083490886 -0.00074056536
000110 de 2d 75 3d 18 eb c0 bc b0 ee ed 3c e4 93 c6 bc
       0.059858195 -0.023549601 0.02904448 -0.024240442
000120 9d 18 8a 3d c8 0f b3 3c c2 69 61 3d 48 a0 90 bc
       0.06742976 0.021858111 0.0550325 -0.017654553
000130 4c 7e 26 bd 4b 0f 8e 3d 40 da 79 bd 40 b2 d7 3a
       -0.04064779 0.06936511 -0.060999155 0.0016456321
000140 73 85 8c bd 72 27 26 bd cc af be bc e1 f0 55 bd
       -0.06861391 -0.04056496 -0.023277186 -0.052231673
000150 ba ee 0a 3d e4 d5 0b 3d 4e ec 63 3d e5 1c 90 3d
       0.033919074 0.03413953 0.05564528 0.07036761
000160 f7 37 95 3d 78 77 50 3c a7 ca 9c 3d 97 74 b1 3d
       0.07286065 0.012723796 0.0765584 0.08664816
000170 66 89 40 bd 3c 03 c4 bc 48 e0 34 bc ac 8b ad bc
       -0.047006033 -0.023927324 -0.011039801 -0.021184765
000180 b2 aa 0b 3d 18 ea b5 3c 38 0f f5 bc b2 66 dd bc
       0.034098335 0.022206351 -0.029914483 -0.027026508
000190 8c a7 ff 3c 54 55 63 bd 53 62 ad bd 81 18 8f 3d
       0.031207822 -0.055501297 -0.084660195 0.069870956
0001a0 c8 1b 54 3c 43 5b 9b 3d 06 6d 30 3d 76 8e 57 3d
       0.012946077 0.07585766 0.043072723 0.052626096
0001b0 8c ed bd 3c 78 7f 6a 3c 56 66 97 bd 4e dd 02 bd
       0.02318456 0.0143126175 -0.07392566 -0.031949334
0001c0 48 d5 f0 bc 2c 55 d5 bc 30 87 a7 bd e0 49 2a bb
       -0.029398575 -0.02604159 -0.08180082 -0.0025983974
0001d0 f3 91 29 bd 1a 58 80 bd fa 52 2d 3d 7d 7b ac 3d
       -0.041398954 -0.06266804 0.04231546 0.08421991
0001e0 40 cf cf 3a de 82 39 3d cc aa 64 bd a2 36 8a bd
       0.0015854612 0.04529082 -0.055826947 -0.06748702
0001f0 00 5d 34 3c d4 d3 e6 bc 14 53 3f bd 5a ee 91 bd
       0.011008501 -0.02817718 -0.04671009 -0.0712554
000200 58 d9 32 bc 28 d3 25 bd 5b 8a 8b 3d a2 f2 21 bd
       -0.010916077 -0.040484577 0.068134986 -0.039538033
000210 0f 66 91 3d a0 d2 b2 3b fc 13 91 3c 08 e9 67 bc
       0.07099544 0.0054572374 0.017709725 -0.01415468
000220 28 f0 62 bc b0 f8 2b bd 49 1d 90 3d 95 d8 20 bd
       -0.013851203 -0.041985214 0.07036836 -0.03926905
000230 d5 c9 a3 3d 9b 83 51 bd 6a aa 16 3d be dc 08 3d
       0.07997481 -0.0511509 0.036783613 0.03341364
000240 04 51 cc bc 02 fb 1e 3d b8 3b 11 bd 50 d6 12 3d
       -0.024940975 0.0388136 -0.035457343 0.035848916
000250 96 db 17 3d e2 48 0c bd a1 0d a5 3d aa cb 07 3d
       0.037074648 -0.034249194 0.0805924 0.033153214
000260 e0 65 fa bb 6b 5a a3 3d d4 d7 c4 bc 28 b1 89 bd
       -0.007641539 0.0797623 -0.024028696 -0.06723243
000270 d1 3c a5 3d e0 db f7 3b d2 df 90 bd fc ef ac bd
       0.080682404 0.007564053 -0.0707394 -0.08444211
000280 5c ca e3 3c 07 04 12 bd 2d 11 ac bd 7e e4 63 3d
       0.027806453 -0.035648372 -0.084017135 0.05563783
000290 47 78 b4 bd 22 96 4c 3d b0 db e0 bb 18 2a 58 bc
       -0.088120036 0.049947865 -0.0068621263 -0.01319363
0002a0 92 dc 56 3d 6d f8 ae 3d e8 c2 42 3c a5 08 23 bd
       0.052456446 0.08543477 0.01188729 -0.039803166
0002b0 53 85 4a bd bf 78 8d 3d ea 6b 47 3d aa 53 86 bd
       -0.049443554 0.06907796 0.0486869 -0.065589264
0002c0 05 67 ad 3d 38 95 cf 3c f0 06 3f bc 20 a0 57 3b
       0.08466915 0.025339708 -0.011659369 0.0032901838
0002d0 e0 8c 8e 3b c0 8f 2d bc 16 31 56 3d 20 26 0f bc
       0.0043502897 -0.010593355 0.052292906 -0.008737117
0002e0 40 29 9b 3b 95 28 ac 3d 48 f0 6c 3c 00 19 8c bc
       0.004735142 0.08406178 0.014461584 -0.017101765
0002f0 e0 76 79 3b cc d2 c0 bc 9d 19 8f 3d 23 a5 97 3d
       0.003806524 -0.023538016 0.06987307 0.07404544
000300 8e 72 8a bd ae 21 81 bd 0e 7e 40 3d 42 95 1b bd
       -0.06760131 -0.06305252 0.046995215 -0.03798414
000310 40 65 e4 3c 62 58 62 3d 80 10 af bc df d7 04 bd
       0.027880311 0.05526007 -0.021370173 -0.032432433
000320 9e 55 7a 3d 68 96 29 bc a2 76 54 3d ac 48 87 bd
       0.061116807 -0.010350801 0.05187095 -0.06605658
000330 38 79 71 3c 36 cb 1d 3d e0 5a 64 3b 0a 29 65 3d
       0.014738373 0.038523875 0.0034844205 0.05594734
000340 80 fb d5 3a f8 9d cc 3c 7a 4b 1d bd 14 b1 11 3d
       0.0016325563 0.02497767 -0.03840206 0.035569265
000350 66 32 18 3d 62 05 54 3d 78 cb a5 3c 60 06 59 bd
       0.03715744 0.051762946 0.020238623 -0.052984595
000360 2f 97 4b bd 80 77 f4 3c e0 d8 10 bb c0 10 f8 bb
       -0.049704727 0.029842138 -0.0022101924 -0.007570356
000370 72 a8 83 bd d0 47 64 3c 2a 10 fe bc dc 27 80 bc
       -0.06428613 0.013933137 -0.031013567 -0.015644006
000380 0e 51 40 3d 88 7f 21 bc b5 b9 af bd 00 78 cb 38
       0.0469523 -0.009857066 -0.08580343 9.702146e-05
000390 00 25 cd 39 fc 7d 9d bc ca 56 77 3d 2f dc a1 3d
       0.00039128214 -0.019225113 0.060385503 0.07903325
0003a0 74 52 83 bd f8 ad 61 bc c3 41 9e 3d 73 6b 8d 3d
       -0.06412211 -0.013774388 0.07727387 0.0690526
0003b0 00 f0 44 bc 14 68 78 bd a8 fa 55 bd 22 a1 6a 3d
       -0.012020111 -0.06064613 -0.052240998 0.057282574
0003c0 00 c8 58 38 bc 05 92 bc 0a 42 16 3d 12 64 d8 bc
       5.1684678e-05 -0.017825 0.036684074 -0.026414905
0003d0 f6 8a 29 3d ea 5a 26 3d 90 e4 0b 3c b1 44 a7 bd
       0.04139229 0.040614046 0.00853838 -0.08167399
0003e0 b0 11 9d 3c 97 1a 8f bd 00 92 04 bd cd 2e 99 3d
       0.019173473 -0.069874935 -0.0323658 0.0747963
0003f0 cf 68 2a bd de 9f 3d 3d 22 3f 1c 3d 61 00 67 bd
       -0.04160386 0.04629504 0.038146146 -0.056396846

fc3.bias f4 [128]
000000 d7 66 a2 3d b7 5a 9a 3d a6 da 0e 3d cc ae c9 bc
       0.079297714 0.07536834 0.03487649 -0.024619482
000010 f8 b6 0e 3d e0 33 18 3b 30 83 ef 3c 20 ac 2f 3c
       0.03484246 0.002322428 0.02923736 0.01072219
000020 f2 49 60 3d d8 7e a4 3c 56 8f 7a bd 98 c2 3b 3c
       0.05475802 0.020080015 -0.061171852 0.011459969
000030 23 b3 9a 3d e0 81 b4 bb a8 af 53 bc 51 2c 4a bd
       0.07553699 -0.0055086464 -0.012920298 -0.04935867
000040 d2 69 26 3d 40 81 86 3c 10 46 69 bd a0 c6 33 bc
       0.040628262 0.016419053 -0.056951582 -0.010972649
000050 20 b1 01 bd d0 c8 57 3c 43 67 13 bd 91 c3 60 bd
       -0.03166306 0.013170436 -0.03598715 -0.054874007
000060 76 37 9f bd 14 4b e1 bc 40 95 c1 ba f8 39 f3 bc
       -0.0777425 -0.02750162 -0.0014769211 -0.029690728
000070 40 08 51 bd b0 58 18 bc 20 b1 09 bc c3 a1 b0 3d
       -0.05103326 -0.0092984885 -0.008404046 0.086246036
000080 50 33 50 bd ae ca 62 bd 41 af 52 bd 02 f6 35 bd
       -0.050830185 -0.05536907 -0.051436666 -0.044424064
000090 1e a9 63 3d b4 a0 91 3c de d4 2d 3d c0 8f 89 3c
       0.055581205 0.017776825 0.042439334 0.016792178
0000a0 61 ed a5 bd 81 a5 80 bd 31 33 98 3d 48 74 53 bc
       -0.08101917 -0.06281567 0.07431639 -0.012906142
0000b0 0a e4 4a 3d c0 dd 58 3b 3f be 39 bd d4 40 5e bd
       0.04953388 0.0033091158 -0.04534745 -0.054261044
0000c0 06 6e 08 bd 5c 03 97 3c 51 fb 96 bd 00 35 38 3c
       -0.03330805 0.018434219 -0.073721536 0.011243105
0000d0 f7 42 98 3d e0 84 79 bc 0b 6c a4 3d a8 1b bf bc
       0.074346475 -0.015229434 0.0802842 -0.023328617
0000e0 9a c5 12 3d 38 07 50 bc 60 fe 7a bd 6d 88 07 bd
       0.03583298 -0.012697034 -0.061277747 -0.03308909
0000f0 35 7c 35 bd f1 18 45 bd 78 21 29 3c d2 e1 4e 3d
       -0.044307906 -0.04811949 0.010322921 0.050508328
000100 e8 10 56 bc 30 0f cd 3c d2 aa 7b bd 30 5c 82 3c
       -0.013065554 0.025031656 -0.061442204 0.015913099
000110 c6 ec ef bc ec 5a ca bc ff 57 8b 3d f0 a6 36 3c
       -0.029287707 -0.024701558 0.06803893 0.011148199
000120 af b0 88 3d bc 7a 38 bd 78 94 44 bc 2c 4e cc bc
       0.06674325 -0.045038924 -0.011998288 -0.024939619
000130 00 29 05 3a 65 06 a3 3d b0 a8 6e 3c 14 06 ad 3c
       0.0005079657 0.07960204 0.014566585 0.021121062
000140 f0 a1 20 bd f0 47 8e 3c 72 98 e0 bc 36 4a 85 bd
       -0.039216936 0.017368287 -0.027416442 -0.06508295
000150 2e ae 1a 3d 7b 09 a7 bd 3d 96 af 3d 00 ca 92 bd
       0.037763767 -0.08156105 0.085735776 -0.07167435
000160 a9 c6 85 3d 20 b7 64 bb cc 89 ac bc 41 af 0f bd
       0.06532032 -0.003489919 -0.0210618 -0.035079245
000170 2c ed 96 bc 0e 91 42 bd f0 4b 26 3c a0 dc 4a 3c
       -0.01842364 -0.047501616 0.010149941 0.012381703
000180 12 4c 1f 3d 80 c1 96 ba 40 f1 d5 ba 28 72 48 bc
       0.038890906 -0.0011501759 -0.0016322508 -0.012234248
000190 29 76 9a 3d 86 6b 6b 3d 38 35 40 bc d9 59 93 3d
       0.075420685 0.05747559 -0.011731438 0.071948715
0001a0 42 cc 5c 3d e5 77 18 bd 0d e9 af bd fa 9b 59 3d
       0.053905733 -0.037223715 -0.08589373 0.053127266
0001b0 00 27 14 3a c8 d7 6d bd de 90 72 bd 40 71 15 3b
       0.00056515634 -0.058067113 -0.059220187 0.0022803098
0001c0 c6 d8 63 bd 0e ad 21 3d 22 5e db bc ce d0 01 3d
       -0.055626653 0.03947168 -0.026778284 0.031693272
0001d0 80 c4 d1 bb 90 d3 9c bd ad 7c 92 3d 58 69 5e bd
       -0.0064015985 -0.0765754 0.07152686 -0.054299682
0001e0 96 c8 64 3d f8 79 39 bc 60 9e c0 bc c8 1e b1 bc
       0.055855356 -0.0113205835 -0.02351302 -0.021621123
0001f0 6a 7e 70 bd b6 4f ea bc e8 60 69 bc 20 d4 11 3d
       -0.058714308 -0.028602462 -0.014244296 0.03560269

fc4.weight f4 [1, 128]
000000 2f 9b e0 3d 26 b6 9e 3d f5 70 bb 3d 9c ff 1a be
       0.10967099 0.07749586 0.09152404 -0.1513657
000010 d6 4d 6d be f6 67 1d 3e 40 eb fc bd a3 1c 19 3e
       -0.23174223 0.15371689 -0.12349558 0.1495233
000020 51 dd 39 3e 77 46 d2 bd 7e 20 3c be 66 84 e0 bd
       0.18150832 -0.10267346 -0.1837177 -0.10962753
000030 15 b6 d6 3d f4 f9 f5 bd 93 17 ba 3d f2 78 5f bd
       0.10483948 -0.120105654 0.09086528 -0.0545587
000040 fc 91 c0 3d 6c b5 3e 3e a3 7e 20 3e d6 d5 e5 bd
       0.09402844 0.18623894 0.15673308 -0.112224266
000050 ea 08 ee 3d 8c 0d 1d 3e 35 40 a1 3d b1 b8 9a 3d
       0.11622794 0.15337199 0.07873575 0.07554758
000060 fe 7f e7 3d fa 13 11 be b1 3d 97 bd 6c d4 3c be
       0.113037094 -0.14167777 -0.073848136 -0.18440408
000070 03 32 e4 bd 26 88 a9 3d 85 96 08 be 74 72 d0 3d
       -0.111423515 0.082779214 -0.13338669 0.1017808
000080 c4 6f 2f 3e 4b 94 05 3e 2b 0a 19 be af 1d 4d be
       0.17132479 0.1304485 -0.14945285 -0.20030855
000090 af 5c c0 3d b5 f8 f1 3d 6a 15 ba bd f4 38 3a be
       0.09392678 0.11815015 -0.09086116 -0.18185788
0000a0 b7 7d eb 3d bb 85 02 3e 76 39 05 3e b3 77 1b be
       0.114985876 0.12746327 0.13010201 -0.1518238
0000b0 c9 41 d9 3d 15 ff cc bd e9 27 46 3e 50 cc 0e be
       0.10608251 -0.100095905 0.19351162 -0.13945127
0000c0 50 78 a6 3d 95 dc c7 3d 49 02 e3 3d d9 9b e4 bd
       0.081284165 0.097588696 0.1108442 -0.11162538
0000d0 9d 9e 0b 3e aa 3b 28 3e ec 90 0d be 40 ec d6 bd
       0.13634725 0.1642901 -0.13824815 -0.1049428
0000e0 dd be 9f 3d a5 ef f2 3d 7d a9 07 3e 28 3e e5 3d
       0.07800076 0.11862115 0.13248248 0.11193496
0000f0 c1 c8 61 be 0f 30 83 bd 15 54 20 be 2d df 9f 3d
       -0.22049238 -0.06405651 -0.15657075 0.07806239
000100 9e 41 27 be 50 d2 b1 3d ac ee 9b bd 31 c9 bb 3d
       -0.16333625 0.08682692 -0.076138824 0.091692336
000110 fe 77 9a 3d b9 76 e8 bd b6 20 e3 bd 43 7c e3 3d
       0.07542418 -0.113507695 -0.110902235 0.111076854
000120 b5 ae 4d 3e dc 27 f9 bd 6f 70 c1 3d 47 df 0a 3e
       0.20086177 -0.12165806 0.09445273 0.13561736
000130 47 7f dd 3d a2 42 19 be 78 bd 0a be bb 1c b0 3d
       0.10815292 -0.14966825 -0.13548839 0.0859923
000140 f0 5b 59 bd 25 c8 b3 3d c4 0e e1 3d 62 eb f6 bd
       -0.053066194 0.08778409 0.109891444 -0.120566145
000150 3a d6 44 be 71 72 ba 3d 1e 8f 1d be 2d 62 ac 3d
       -0.19222346 0.09103859 -0.15386626 0.08417163
000160 c8 98 39 3e c2 d9 d5 3d cd 0d 0a 3e 60 e8 df 3d
       0.18124688 0.10441925 0.13481827 0.10932994
000170 77 91 2e be 7b 76 10 be 1a e8 a9 3d d8 d1 d5 bd
       -0.17047678 -0.14107697 0.08296223 -0.10440415
000180 93 2e ce 3d 06 94 cd 3d 33 3a 28 be 2a 61 1a be
       0.10067477 0.10037999 -0.16428451 -0.15076128
000190 f5 54 b2 3d a1 12 f7 3d c6 1d 0c be 09 84 54 be
       0.087076105 0.120641 -0.13683233 -0.20753492
0001a0 8d d9 9f 3d ec fe a6 3d d4 54 2d be 47 b9 80 3d
       0.078051664 0.08154091 -0.1692689 0.06285339
0001b0 92 e4 5c bd df 0e 8c 3d fa 8d 99 3d 45 18 ee 3d
       -0.05392892 0.06838774 0.07497783 0.11625723
0001c0 c8 de bc 3d 25 dc b1 3d eb d1 08 be ef fd bf bd
       0.0922218 0.08684567 -0.13361327 -0.09374606
0001d0 ef 53 ec bd 05 a4 ed bd 10 e7 dc bd d2 50 d0 bd
       -0.115394466 -0.1160355 -0.10786259 -0.10171665
0001e0 00 27 4a 3e 03 47 ba 3d a8 2c c0 3d 71 a3 07 be
       0.1974144 0.09095576 0.093835175 -0.13245942
0001f0 71 6f 8c 3d e7 31 87 3d f4 48 1d 3e cd b8 03 be
       0.06857193 0.06601315 0.1535986 -0.12863465
