checkpoint_actor.pth (torch_old, 169403 bytes, 6 tensors)

fc1.weight f4 [256, 33]
00000000: 04f3 dabc ede1 663c b69b 8b3d 6478 bc3a
00000010: f057 2cbd 80d7 823b 518a 1cbd ba85 883e
00000020: 09c0 09bd 520c 833d 1cba 253e 96b1 09be
00000030: 9c07 63bd 3ce3 a53d 39ff 1cbe b5a2 98bc
00000040: 3273 43bc ce8b e33d f5a2 413c e163 233b
00000050: 074a 453d 10c4 c2bd c5de 3f3b 9ab5 bc3d
00000060: 27a2 e83d 0316 c53b b5ae 983b 8b8b 1bbd
00000070: a559 043c 3475 bdbc 71fa 283d 9098 213d
00000080: 8f32 843e 89e7 fe3d cfe7 a2bd 187d 8f3d
00000090: 8876 d9bb a729 adbd 4c46 53bd 3dc8 063d
000000a0: 4a7e 4fbd f835 49bd 2fbc 03bd 5a11 bdbc
000000b0: 5a23 643d 2489 c83d 5089 da3d ff81 15bd
000000c0: c07f ca3d 368c 04bc f020 aebc 0851 993c
000000d0: 013a bfbb 9cdc 703d 5f41 fdbd 1048 863c
000000e0: 007a 36bd 0da4 98bd 05e5 1d3d feff 46bd
000000f0: d336 12be 1208 2c3d 04e7 26bd 6f70 ad3d
00000100: 8011 503b 1c80 47be 64c7 273d 25eb d1bd
00000110: 0bde 063d 3d50 de3b 6dca 233b bc5d eebb
00000120: 3bce 06bd ed3e 33be 759c be3d f165 0a3e
00000130: ae80 c3bd bcd9 09be a87b f43d aecc a43d
00000140: 8f81 173e e1a2 0dbe 4ef2 4abd 34f6 29bc
00000150: 4562 ce3b 355b cdbc 40ed a0bd 283f 9d3c
00000160: 6cb7 e6bb 2859 063d 6fc9 bfbc 50b8 a13c
00000170: 14ca e93c fbae 1abd cc60 083e 786d 473d
00000180: 01d2 09bd 56b3 353d 56f4 58be b534 6ebd
00000190: d584 6b3e 2e62 23bd 47c7 e33c 9db2 97bd
000001a0: ba5f 03bd 1eeb 823c 27fe 813d 3883 9dbc
000001b0: 5767 923d c131 7e3c b197 9a3d 2e7d f2bc
000001c0: 87fe 3fbd f878 acbc ffd9 bfbc f177 a6ba
000001d0: 9c61 89bd 7fb7 01be 3f9b 0cba 470f 123e
000001e0: e0c1 1fbd 59c6 4abc 9018 f139 090a c83c
000001f0: 08d3 f7bc e20e 09be dcd3 0ebd df92 a73d
00000200: 1883 153d 11a6 afbd 680e e7bc 036b 363e
00000210: 4e2e 9ebd 03a5 8bbd 97a9 783d 0469 bf3b
00000220: ba85 d73d 25c3 963b 0132 8e3b 75c4 1c3d
00000230: fde0 24be ce1b 3fbd bddd a13a 2dcf c5bc
00000240: c165 ba3c 9334 343e eb04 23be 9d11 0ebc
00000250: b44f bc3c c4c7 69bc fa9a 78bd 045a 8abc
00000260: 8ec4 c6bc 62b0 cabb 2d57 88bc 3e83 243d
00000270: eb22 66bd 8596 5fbd 7d68 12be 4578 52be
00000280: 2919 ff3a a602 3c3d f31c 0c3e 1858 763d
00000290: ef3e 2b3d e0c0 2cbd 434c 323e c3f1 f13c
000002a0: b59a 8f3d b0f7 b9bd 37dc c9bb bace 863d
000002b0: 3f8f 08be 8bbe 35bd 63e5 cd3d a21b ed3d
000002c0: 6a38 e13d 268f d73c 4457 05bd d0b2 15be
000002d0: 239e c53c deca 0b3c 29e8 e43c d9f6 93bd
000002e0: 4640 8a3a f34f 13bd 0155 e4bc 4bbd 21be
000002f0: 0650 47bd 0750 eebc 62fd 413c 6970 283d
00000300: 5f4b e8bd 6d56 c5ba dc1d 4ebd bf2c c63d
00000310: 2095 613b 7520 8ebe 96f1 09be b71a c73d
00000320: eca4 903c 4d16 31bd 4be8 b43c 68be 983d
00000330: 8ae8 243d 52f9 8abd f122 5abe bbb8 133e
00000340: c590 423d 1ca8 013c b850 9dbd d8cf 3c3c
00000350: 4ecd 55bd 51d5 ca3c 2778 cdbc bd67 913c
00000360: a52c e8bb 08e3 303d 4292 893d 32cb 1bbd
00000370: 0fb5 773d 5398 f4bc 7b5d 5bbd 31eb 313e
00000380: cfa1 933d 1d70 dcbd 9584 9b3d 1864 0ebc
00000390: 4f63 2f3e f040 2b3d f6d5 dd3e 1169 34bc
000003a0: c0d2 9b3d 1f17 bb3d 3a91 0c3d 0b03 c33d
000003b0: 27b5 0d3c ce6a e63d ae51 a0bd 94c0 0e3d
000003c0: fe82 1abe c71e 893a b970 283e 2cf0 8e3d
000003d0: 270e 963d 6ca0 123e d66d 30bb 1afb d3bd
000003e0: 08d8 083c cc3d 9a3d cea2 713d f483 bfbd
000003f0: 3863 323e 67ae 04be 1ef8 873e 40f0 71bd
-0.026727207 0.014091951 0.06816809 0.0014379141 -0.04207605 0.0039929748 -0.038217846 0.26664525
-0.033630405 0.06398834 0.16184276 -0.1344665 -0.05542718 0.08099982 -0.15331735 -0.018632272
-0.01192932 0.1111065 0.011818637 0.0024931359 0.0481663 -0.09510052 0.0029277068 0.09214325
0.11359053 0.006014587 0.0046594986 -0.037974875 0.008078014 -0.023127176 0.041254465 0.039452136
0.25819823 0.124465056 -0.0795437 0.070062816 -0.0066364445 -0.0845521 -0.051580712 0.032905806
-0.050657548 -0.049123734 -0.032161888 -0.023079563 0.055697776 0.097917825 0.106707215 -0.036500927
0.09887648 -0.0080900695 -0.02125594 0.018715397 -0.005835772 0.05880414 -0.12365984 0.016391784
-0.044549942 -0.07453165 0.03854849 -0.048583977 -0.14278726 0.041999884 -0.040747657 0.08468711
0.0031748712 -0.19482464 0.040961638 -0.102499284 0.0329266 0.0067844675 0.0024992481 -0.0072743576
-0.03291152 -0.17504473 0.093071856 0.1351545 -0.09546028 -0.13461965 0.11937648 0.08046852
0.14795516 -0.13831665 -0.049547486 -0.010373641 0.0062983357 -0.025067905 -0.07857752 0.019195154
-0.0070409086 0.03279987 -0.02341148 0.019741207 0.028538741 -0.03776453 0.13318175 0.048688382
-0.03364754 0.04436048 -0.21186957 -0.058155734 0.2299989 -0.039888553 0.027804984 -0.07407115
-0.032073714 0.015981253 0.06347304 -0.019227609 0.07148617 0.015514792 0.07548464 -0.029600706
-0.046873596 -0.021053776 -0.023419378 -0.001270054 -0.06708071 -0.12667654 -0.00053637096 0.1426364
-0.039003253 -0.012376391 0.00045985403 0.024418848 -0.030251995 -0.13384584 -0.034870014 0.0818231
0.036501974 -0.085765965 -0.028205112 0.17814259 -0.07723676 -0.06818583 0.06070861 0.0058413763
0.10523553 0.0046008998 0.004339457 0.038273294 -0.16101451 -0.046657376 0.0012349408 -0.02414664
0.022753598 0.1759818 -0.15919845 -0.0086711915 0.022987224 -0.014268819 -0.060694672 -0.016888626
-0.024263646 -0.0061855773 -0.016643131 0.040164225 -0.056185644 -0.054586906 -0.14297672 -0.20553692
0.0019462454 0.045900963 0.13682918 0.060142606 0.041808065 -0.042176127 0.17411904 0.029534226
0.0701193 -0.09080446 -0.006160285 0.06582399 -0.13335894 -0.04437117 0.10053518 0.11577536
0.10997088 0.026313376 -0.032553926 -0.14618993 0.024123257 0.008532254 0.027942734 -0.07224817
0.001054772 -0.035964917 -0.027872564 -0.15794866 -0.0486603 -0.029090894 0.011840196 0.041122828
-0.11342501 -0.0015055664 -0.050321445 0.096765034 0.003442116 -0.27759138 -0.13471064 0.09721892
0.017656766 -0.04323416 0.022083422 0.07458192 0.04026083 -0.06785835 -0.21302392 0.14425938
0.047501344 0.007913616 -0.076814115 0.011524163 -0.052197747 0.02475992 -0.025081707 0.017749662
-0.0070854 0.043185264 0.067173496 -0.03803558 0.060475405 -0.02985779 -0.053555947 0.17374875
0.07208597 -0.107635714 0.075936474 -0.008690856 0.17127727 0.041809976 0.43327302 -0.011011378
0.07608557 0.091352694 0.034318186 0.09522065 0.008649147 0.1125084 -0.07828079 0.034851626
-0.15089032 0.0010461443 0.1644925 0.06979403 0.07326918 0.14319009 -0.0026920936 -0.10350628
0.008352287 0.07531318 0.058993153 -0.0935134 0.17420661 -0.12957154 0.26556486 -0.05906701

fc1.bias f4 [256]
00000000: 2211 95bc f6a4 1ebd 3108 453e 174e 6cbd
00000010: 7fad 403e cd0f a83d 8e25 613e 19ff 0ebe
00000020: e2bd 9f3d 65c8 1b3e 8d5d ce3c ea9e bebd
00000030: dd56 9f3c 9490 d03c 2823 af3d 9cf8 0f3b
00000040: fd6e 0f3c d3c4 d4bd fef9 d5bd 9191 113e
00000050: f4c6 fb3d e0c9 763e 8750 6d3e 6054 5bbd
00000060: 0abd e6bb 933e 91bc f3f1 9cbd d65c 543e
00000070: b85b 733e 6cc4 0ebe bded 9c3d c35e 843d
00000080: 8488 353d 65f8 2c3e 8d51 50be 8fb3 133e
00000090: 18c6 833e b85a 903d b028 a8bd e327 56bd
000000a0: 9b1e 273e fc97 543e 954e 00bd 006b d2bd
000000b0: cacc 2abe be30 12bd 0135 1fbe 5129 0e3d
000000c0: 8213 b0bc a717 643e d922 d2bb 7c3e 27be
000000d0: 8e87 e1bd e731 3a3e 261d b2bd 564d 3a3e
000000e0: 5423 503e 1228 e13d a4ee fdbd d52c 57bd
000000f0: 74df 08bb 14e7 263e 83d6 233b fa61 a43d
00000100: dc4f 843d 3adb 8dbe 45ac 273d 58c7 59be
00000110: 5193 173e c571 25be 8c13 153e d93f 2ebd
00000120: 5a3e 473e 452c a03e b587 3d3e 7e3a 47be
00000130: e600 863e f171 11be 4007 e8bd c3da 68be
00000140: 28d7 6bbd 9eac 973e bff4 0f3d 4242 8d3d
00000150: 1382 c03c 1970 093e 2f25 34be 3b3c 063e
00000160: c662 9abd 69c5 27be c3aa e53c 7444 cd3d
00000170: 60cf ca3d 03d6 f13d 3450 9d3c fd79 773d
00000180: b0bd 833e 1239 1abe 58de 2bbc 769a 61be
00000190: 39a6 803a 2fc8 e33c 907c 9fbb cfb5 94bd
000001a0: d13d 48be 8e1d dcbc e7e8 323d 0c14 fe3d
000001b0: afc8 0d3e c8a9 2abd 047a 24bc 5945 4c3d
000001c0: fc2e 9ebd 4126 cebc 4b7c c8bc 3c82 7dbd
000001d0: 4003 893e d402 a43d 6afb 083e 2b6a 493d
000001e0: 4791 e43c 3cf8 6d3d 441f 273e 328b a33d
000001f0: f412 e93c 4d4c 8c3d 9a21 3dbd 3186 0d3e
00000200: 398c bebd 7606 673e 4b08 043d 4f3c 813c
00000210: 4f65 d4bd 1b1c b9bd 0adf d03d 10f8 093d
00000220: c44c ae3d 4aea ed3d e2e2 0d3e 5f83 7bbd
00000230: f186 09bd d121 243d c5fe 5bbd cade 21bd
00000240: 455b a0be 3ddb acbd 5831 053e ffb4 fe3d
00000250: bbc2 963c a7b8 ae3c d111 d8bc 914a 81bd
00000260: 74e4 713b a483 093e 5a8e 35be a46c 423e
00000270: d316 29be d51b 913d cce7 38bd 6948 1c3e
00000280: 416c a83c e8b2 ee3d 7242 cbbd bae4 dbbc
00000290: 909b eebb 0afe ea3d 82d1 5cbd 1381 46be
000002a0: b44c 0c3e cd99 a23e c88b ba3d d90e 5e3e
000002b0: 8cad 113e 78c9 debd 9531 87bd 04fe 8a3d
000002c0: 1a66 2c3e ed5c 9d39 b7ed a13d fb1b 93bd
000002d0: 276b 8ebc 2d54 723e 7f0e 93bd 894b 32be
000002e0: 561b 16bb f8eb 67be 5f6c 84be 8ca6 3ebb
000002f0: 3e20 003e 5d76 943e 73e2 a6bc f4e5 173e
00000300: 4e30 d9bd b943 dc3d 228f 833e 3d39 893d
00000310: 1ca3 653e d5ca 1c3d 1393 25be 3a06 c7bd
00000320: b767 ce3d fbac 883d c192 a1bd 87da 9c3d
00000330: 345b 643e 0361 40bd fc17 053e 451a d1bd
00000340: ace2 72bd a6f7 5bbc c0d1 3cbd deed 253a
00000350: 49c8 0d3e 592b 46bd 5ee3 61be cc75 cc3d
00000360: f290 f33d 5848 72be bb0d 483e 02ae ab3d
00000370: fc04 e83d 58a7 c23b 8029 413e 7bf2 61bc
00000380: 7fb6 073e fc7c c5bc 66a2 853e 039c 903d
00000390: 1c5a 86bd 2677 c5bc 46df 863c 296c ae3c
000003a0: e7da cbbd 9bf3 063e 32ed 913d 67d7 1bbe
000003b0: 4d02 ff3d f440 1b3c 79b1 a53d 31aa 0abe
000003c0: b91f 43be 0731 28be 9004 db3c 03bf c63d
000003d0: 78d4 f3bd 8045 35bd 2e50 623c af14 3fbb
000003e0: 5c43 8ebd a759 fe3d 9551 94bb c507 9fbd
000003f0: 2a0e 24be 435e 363e 0645 373e 46a9 58bd
-0.018196646 -0.038731538 0.19241406 -0.05769166 0.18816184 0.08206139 0.21986982 -0.139645
0.07799889 0.15213163 0.025191093 -0.09307654 0.0194506 0.025459565 0.085516274 0.002196825
0.008754489 -0.10389104 -0.10448073 0.14215685 0.12293807 0.24100447 0.2317525 -0.053547263
-0.007041578 -0.017730033 -0.07663336 0.20738539 0.23765457 -0.13942116 0.076625325 0.06463387
0.044319645 0.1689163 -0.20343609 0.14423965 0.2573707 0.07048553 -0.082108855 -0.052284133
0.16320269 0.20761102 -0.03132494 -0.10274315 -0.16679683 -0.035691015 -0.15547563 0.03470737
-0.021493677 0.22274648 -0.0064128456 -0.1633243 -0.11012183 0.18183099 -0.08696966 0.18193564
0.20325977 0.10993971 -0.12399033 -0.05253299 -0.0020885142 0.16299087 0.0024999685 0.080265
0.064605445 -0.2770632 0.040935773 -0.2126745 0.1480229 -0.16156681 0.14558238 -0.04254136
0.19457379 0.31283775 0.185088 -0.19455907 0.2617256 -0.14203621 -0.11329508 -0.22739701
-0.057578236 0.29623884 0.035145517 0.06897403 0.023499524 0.13421668 -0.1759231 0.13108914
-0.07538371 -0.163839 0.028035527 0.10022822 0.09902835 0.118083976 0.019203283 0.06041907
0.25730658 -0.15060833 -0.010490023 -0.22031578 0.0009815163 0.027805416 -0.004867144 -0.0726124
-0.19554831 -0.026869562 0.043679144 0.124061674 0.13846086 -0.041665822 -0.010038856 0.049870823
-0.07723805 -0.025164725 -0.02447333 -0.06189178 0.26760292 0.08008352 0.13377157 0.049173515
0.027901305 0.058098063 0.1632052 0.07985534 0.02845142 0.06850491 -0.046174623 0.13820721
-0.09304089 0.22561058 0.03223447 0.015775828 -0.103708856 -0.09038564 0.10198791 0.033683836
0.08510736 0.11616953 0.1385608 -0.061404582 -0.033575956 0.040071312 -0.053709764 -0.03951911
-0.31319633 -0.08440254 0.13007104 0.12436866 0.018403402 0.021328283 -0.026375683 -0.063130505
0.003690985 0.13429123 -0.17730084 0.18986756 -0.16512613 0.07085387 -0.045142934 0.15261997
0.020559432 0.116552174 -0.09924783 -0.026842464 -0.007281728 0.11474235 -0.05391074 -0.19385175
0.13701135 0.31757966 0.091086924 0.21685351 0.14226359 -0.10878271 -0.06601254 0.06786731
0.16835824 0.0003001461 0.07906669 -0.07183071 -0.017385079 0.23664923 -0.07180499 -0.17411627
-0.0022904477 -0.22648609 -0.2586393 -0.002909097 0.125123 0.28996554 -0.020371651 0.14833814
-0.106049165 0.107551046 0.2569514 0.067003705 0.22425503 0.038279373 -0.16169386 -0.097179845
0.10078376 0.066736184 -0.07889319 0.07658868 0.22300416 -0.046967518 0.1299743 -0.10210089
-0.059298202 -0.013425743 -0.04609847 0.00063296955 0.13845934 -0.048381183 -0.2205939 0.099834055
0.118928805 -0.2366041 0.19536488 0.08382799 0.11329076 0.005940359 0.18863487 -0.013790722
0.1325321 -0.024107449 0.26100463 0.07061007 -0.06560156 -0.024104666 0.016463887 0.02129181
-0.09953862 0.13178866 0.071253195 -0.15218888 0.12451611 0.009475935 0.08090491 -0.13541485
-0.1905507 -0.16424952 0.026735574 0.09704401 -0.119057596 -0.044255733 0.013813062 -0.0029156615
-0.069464415 0.124194436 -0.004526327 -0.07765154 -0.16021028 0.17809395 0.17897424 -0.052895807

fc2.weight f4 [128, 256]
00000000: 2f8f 08be 811f 013e 1f3b d6bd 9d2b cf3d
00000010: 1a00 28be adf6 873d 9a7d d93d b4d2 f43c
00000020: e0eb e7bd 2adb 42be 8197 82bc 2590 e4bd
00000030: 1f63 3c3d f1d3 b4bd 6783 6cbd dcdd 9abd
00000040: 3623 db3d e6e2 96bd 1d8c f13d ade8 003d
00000050: 10f9 8b3d 397f c0bc fd3e 0cbe 0b28 02be
00000060: aa75 01be 11cb e7bd 2137 a9bb f1a4 3bbe
00000070: 0d5e febd 86b9 ae3d a1cc 863e c554 4f3c
00000080: f255 76bc 5463 ff3d 34e3 043d 737e 63bd
00000090: 93ee 7a3e 8a1c b63c a5eb 0ebe f3a9 083c
000000a0: a198 823d 95fa 2a3e 88e9 483c e25e 19bc
000000b0: 8c75 553e e512 3a3e 1152 38be 9b85 a23d
000000c0: be75 e4bd c077 ca3c 06a5 6cbd 35aa 86be
000000d0: 33a7 4fbd 4396 233e 94dc 12be f2a2 2b3d
000000e0: a501 0abd ce72 053d 23bf 0b3e e9c3 49be
000000f0: 3e2a c4bb 7542 b93d cb33 ea3d 1ec6 90bd
00000100: e091 b93c 6ea4 d9bd 1f23 6a3d 59bf a6bd
00000110: 2cc5 2e3e 5872 aabe 49cd da3c fce9 72be
00000120: afb7 673c 75f6 1e3e 4667 b23d 30a6 a63c
00000130: 5457 1ebe 8826 72be ebe0 843c 28e3 dbbd
00000140: b6bc 0f3e 5139 4b3e 6eda aa3b 6e1b 003e
00000150: 12ba e8bc ad06 3d3e 5148 a53b fbfa 113e
00000160: 114e a0bc 554a 693c 93fd 493d 1779 a4bd
00000170: ce11 233d 0352 003e 833c dcbc 232e bc3b
00000180: 315b ea3c 90c4 893d 47ae aa3d 42c5 98be
00000190: 737e 393e bed8 07be d1e0 02be 9b23 453e
000001a0: 0ac3 a83d 03ef 21bd d93d c73d d94e 29bc
000001b0: ad3c a53d ed9d 4e3d 1a6d 0f3d 4f61 fb3d
000001c0: 5d7c 52bd f20e 1c3e ca51 1fbd 401b 8abd
000001d0: bafa 863c 0234 813d b489 c23d c95d 083e
000001e0: 501e 653a c2df b43c a683 09be 3a59 9e3d
000001f0: 511e 0b3d 288c 06bd e23c 1fbc 8152 cabd
00000200: f8e2 b1bd 76e5 f73d 11c0 c63d df4a c9bd
00000210: b07d fa3b 2910 a03c 9cd4 303e 8c32 a73d
00000220: c814 73bd 25b8 a63d 9c25 99bc f892 6a3e
00000230: d1ae ce3c 9ecb 12ba ed0f c2bc 32b8 55bd
00000240: 5225 11bd b519 7ebe 7956 9c3d b78c 07bc
00000250: 3ed3 c83d 5252 053d 8e87 433e efa1 0f3e
00000260: 7748 bb3d 6ada 3f3b ac50 7e3d 5bf1 cdbc
00000270: 8f1e 073e a61c 77be 2151 c9bd b3f0 243e
00000280: ea74 223e 61a4 d6bd 51b7 c4bd bd23 2e3e
00000290: 0d10 f13d 634c 033d 2714 9c3d 5f4e 593d
000002a0: 3a9e 833d 7e27 003e 6012 93bd a762 143e
000002b0: c549 52bd 0ca0 373c ec7c 833d fbe4 d53d
000002c0: c3a9 083e 9694 97bd 525c b7bc 2a30 723d
000002d0: 07bd 053d 3445 f4bd db5f 993d 9da7 013d
000002e0: 665b 0b3e f970 083e 1a52 22be d7b4 53bd
000002f0: f91c 34be a275 483c bef2 aebe ef2c a53c
00000300: b130 a23d 9310 083e 3574 64bc c743 413d
00000310: b572 1cbe 744d 9e3d 6ec7 36bd 2f4a 24bd
00000320: d625 b3bd 6837 36be cf16 e0bd 0747 28bd
00000330: f2e0 a9bd fbbc 8ebe 75aa 543d aa60 3a3b
00000340: c3f5 2b3e 57fb e0bd faf2 55bd 0069 b4bd
00000350: 7f8a bf3c 7b8a 9bbd 60e5 083e 5b82 de3d
00000360: 293d 00bd fb43 1e3e 10c0 783d e0ed d33c
00000370: 0b2e fbbc 2be2 403d e1cd d63d 946e 82be
00000380: 971b 533d 63cf 7cbd bba9 843d c06a f03d
00000390: 963c b0bd 0ffd 2cbd 9d4d 98bc 3ec2 483e
000003a0: d35b 353e 7605 a9bd d055 143e e377 bebd
000003b0: 5cb5 86bd c49e 2ebe e734 c33c c741 dcbd
000003c0: eda4 6a3c 052e 713c 290b 4abd 65b1 2a3d
000003d0: d514 633d a3a7 853d 0eb7 35be 1c07 0f3e
000003e0: 19b6 86bd 1552 3a3d e71b 3cbe ce65 f2bc
000003f0: b920 e83a 6744 2f3d f958 67be 2576 e63c
-0.1333587 0.12609674 -0.10460495 0.101157404 -0.16406289 0.066388465 0.1061966 0.029885627
-0.113242865 -0.19028917 -0.015941383 -0.11160306 0.045992967 -0.08829487 -0.057742503 -0.075618476
0.10700075 -0.07367496 0.117943026 0.031471897 0.06834614 -0.023498164 -0.13695903 -0.12710588
-0.12642542 -0.11318029 -0.0051640426 -0.18324639 -0.124202825 0.085314795 0.26327994 0.012654488
-0.015035139 0.12470117 0.03244324 -0.055540513 0.24505071 0.022230405 -0.13957079 0.0083413
0.06376768 0.16697152 0.012262709 -0.009361001 0.20845622 0.1817127 -0.18000056 0.079356395
-0.1115527 0.024715304 -0.057774566 -0.26301733 -0.050696563 0.15975289 -0.14341956 0.041903444
-0.033692975 0.03258019 0.13647132 -0.1970364 -0.005986481 0.09045879 0.1143566 -0.07069038
0.022652566 -0.106270656 0.0571624 -0.081419654 0.17067403 -0.33290362 0.026709216 -0.2372207
0.014142915 0.15523703 0.08711104 0.020342916 -0.15463 -0.23647511 0.01622053 -0.10736686
0.14036831 0.19846083 0.005214027 0.12510464 -0.028409038 0.18459578 0.005044021 0.14255898
-0.019568475 0.014238914 0.049314093 -0.080309086 0.0398119 0.12531285 -0.026884323 0.0057428046
0.028607937 0.067269444 0.08334022 -0.29837996 0.18114643 -0.13266274 -0.12781073 0.19251864
0.08240326 -0.03953458 0.097285934 -0.01033374 0.080682136 0.05044358 0.035016157 0.122744195
-0.051388133 0.15240076 -0.03889636 -0.06743479 0.016476978 0.06308748 0.09498921 0.13317026
0.00087401737 0.022079352 -0.13429126 0.07731862 0.03396446 -0.032848507 -0.009719105 -0.098790176
-0.08685869 0.12104313 0.097046025 -0.09828734 0.0076443776 0.019538956 0.17268604 0.08163938
-0.05934599 0.081405915 -0.018694691 0.22907627 0.025229843 -0.00055997993 -0.023689235 -0.052177615
-0.035435982 -0.24814494 0.07633681 -0.008273295 0.09805916 0.03254921 0.19094679 0.14026617
0.09144681 0.0029274472 0.062088653 -0.025139501 0.13195251 -0.24132022 -0.09829927 0.16107444
0.15864912 -0.104805715 -0.09605277 0.1700582 0.117706396 0.03205527 0.07621031 0.053053256
0.06426664 0.12515065 -0.07181239 0.14490758 -0.051339883 0.011207592 0.06420311 0.10444065
0.13346009 -0.074013874 -0.022382889 0.059127964 0.032650974 -0.11927262 0.07488986 0.03165399
0.13609084 0.13324346 -0.15851632 -0.051686134 -0.17589177 0.012235077 -0.34169573 0.020163028
0.079194434 0.13287573 -0.013943722 0.047183778 -0.15278132 0.07729617 -0.044623785 -0.04010981
-0.08747451 -0.17794573 -0.109418504 -0.041083362 -0.08294858 -0.27878556 0.051920373 0.0028438964
0.1679297 -0.10985439 -0.052233674 -0.0880909 0.02338147 -0.075947724 0.1336875 0.10864707
-0.031308327 0.1545562 0.06073004 0.025870264 -0.030661603 0.04709069 0.10488487 -0.2547499
0.051539984 -0.061721217 0.06477686 0.11739111 -0.08605306 -0.042233523 -0.018591696 0.19605348
0.1771081 -0.08252995 0.1448586 -0.0930021 -0.0657756 -0.17052752 0.023828937 -0.107547335
0.014321548 0.014720445 -0.04932705 0.041673083 0.05543979 0.06526115 -0.17745611 0.13967556
-0.06577701 0.045488436 -0.18370019 -0.02958956 0.0017709947 0.042789843 -0.22592534 0.028132508

fc2.bias f4 [128]
00000000: f0c1 3e3d 2ab7 1abd 1077 d93b dea9 4bbd
00000010: 27d2 363d 88b6 8a3d eac9 ec3d 663a a1bd
00000020: 56ad 86bc d585 17bd f51d b53d 5019 6cbd
00000030: 1bdf 723c ad91 24bd 9bb5 1d3d 0028 7abc
00000040: f0c0 23bc 1b6c 4abc 61bd 4c3c ffe0 4a3d
00000050: 708f 273c 7753 f83b 8d08 943d 1207 043c
00000060: 53ff 7f3d 7a63 f2bc 02a6 0f3d 0382 6c3b
00000070: cc57 033e 64c0 753d 7de1 9a3d 7832 4dbd
00000080: 21f2 1dbd 538b cd3c ed1e 463c 7590 413d
00000090: 8fc1 89bd cecc a3bd 643f 25bd 4910 6d3d
000000a0: 3e32 84bd b3ed 01be ea9f f13c 44b7 913d
000000b0: 2d49 823d c684 b23c 97a7 f4bc 90f9 293d
000000c0: d445 9d3d 6b93 813d 9f58 943c ffb1 62bd
000000d0: fee7 72bd bc8d ffbb da6c cf3c c6fc 98bb
000000e0: 3af7 9fbc ec18 d73d bb40 e83d bd23 113c
000000f0: 5e55 02bd 3847 9f3d 8973 943d fa9b 923d
00000100: 1621 b03d 33a2 3cbc bd64 19bd a753 f43c
00000110: 16a6 b73d 4849 253d ae97 7ebd faa5 d03d
00000120: e451 413d 2400 0c3d baa9 893d 60e3 903d
00000130: 7faa a03d dd20 f53d c30c ebbb c833 c0bc
00000140: 3759 d63c 9b60 c93a 8890 733d 2f23 4fbc
00000150: 0f89 08be d00b be3b 54ab 9f3d 3b6f a03d
00000160: a47f 24bc d7de 80bd 1916 4f3d 3e6d 313d
00000170: df70 d33c 68cf 2dbd ac82 b2bb ab16 98bc
00000180: c56f 543d 3653 873a bf23 143d 6a6a 8abd
00000190: d2cb 22bd b0f3 d33c 3dba 8f3d 4927 ae3c
000001a0: 3ca8 e63a 51e9 17bc 7301 07bc af9c ec3c
000001b0: 160a 9ebd bd9a 6a3d 845d fc3c e50a 663d
000001c0: 27da 843d b242 9d3c 7c2f a8bc fadd 343d
000001d0: 65e6 b63d 73a3 193d ef3e d0bc f3b8 463d
000001e0: 6860 6b3d 0464 c73d 0706 293d e177 bdbc
000001f0: cef9 983d 2464 babb ddc3 1d3c 9d78 e73c
0.046571672 -0.037772335 0.006636508 -0.049722545 0.04463401 0.06773096 0.115619496 -0.07872467
-0.016440075 -0.036992867 0.088436045 -0.057641327 0.0148237 -0.04017799 0.03850327 -0.015268326
-0.00999473 -0.012354876 0.012496323 0.04953098 0.010227069 0.007578309 0.072281934 0.008058326
0.062499356 -0.02958845 0.035070427 0.0036088235 0.1282646 0.05999793 0.0756254 -0.05009696
-0.03856099 0.025090849 0.012092334 0.047256906 -0.067263715 -0.07998048 -0.040343657 0.05787686
-0.064548954 -0.12688331 0.029495198 0.07115033 0.063616134 0.021791827 -0.02986507 0.041497767
0.07679334 0.06326946 0.018108664 -0.05534553 -0.059303276 -0.0077988785 0.02532046 -0.004668805
-0.019527066 0.105028 0.11340471 0.008858618 -0.031819694 0.07777256 0.07248599 0.071586564
0.08600061 -0.011513281 -0.037449587 0.029825045 0.08967225 0.04035309 -0.06215637 0.101879075
0.047197238 0.03417982 0.06721826 0.07074618 0.078450195 0.11969159 -0.007173152 -0.023462191
0.026165588 0.0015363874 0.059464008 -0.012642666 -0.13333534 0.005799748 0.0779635 0.078337155
-0.0100401975 -0.06292503 0.050558183 0.043317072 0.025810657 -0.042434126 -0.005447706 -0.018565496
0.051864404 0.0010324481 0.036166903 -0.06758578 -0.03974516 0.025873035 0.07017944 0.021258967
0.0017597745 -0.009271936 -0.008240092 0.028883306 -0.077167675 0.057276476 0.03080631 0.056162734
0.06486922 0.019196842 -0.020530455 0.044157006 0.08930663 0.037509393 -0.025420634 0.048516225
0.057464987 0.09735873 0.041265514 -0.023128452 0.074695215 -0.005688207 0.009629217 0.028255755

output.weight f4 [4, 128]
00000000: caf2 4b3e cbfd 85bc df93 44be e965 88bd
00000010: 4885 a33e 747d 673c 11e8 1abe 1174 e63e
00000020: 12d9 0b3d b2fb 6d3d 112e ddbc df33 03bf
00000030: 78fb 373e d935 aabd e40f cf3d c03c 5c3d
00000040: 291a bc3d eb68 033e e3d1 2f3d 74dd d5bc
00000050: cb6e 00be e404 8bbe b60d 323e 4d91 e83d
00000060: 52bf f53c 9afa 323d 0fc0 86be 94b3 b23d
00000070: fd64 7bba 346b 36be a970 c6be 2697 6dbe
00000080: 16cf c43e 6aa7 aa3e 248d 93bd 98ef 943e
00000090: f300 3f3e b288 c63e 7b2c 08be 31af ebbd
000000a0: ffd4 bf3d 200e 31bf 48d4 d03d b72a 0fbe
000000b0: 0feb 543e 48d2 32bd 80b7 64be 632d 8ebd
000000c0: eb05 7e3d 2582 e83d 935d 5ebe 86bc 72be
000000d0: 2ce1 b8be 1876 d03d c953 b13d 7545 373e
000000e0: 3622 3fbe c4fa 06bf d059 873e f722 993d
000000f0: 55d4 bfbe 5cf0 573d c4f0 c23e 5ce7 053d
00000100: 7390 7c3c 5dd4 213c 0ccf 343d 50cd 3abd
00000110: 2c13 cd3c 5e93 b23d f856 a43c 3559 ce3d
00000120: dcae d1be 2e68 15bc 92c8 4a3e fea4 76bd
00000130: 69cb 3fbe c09a 41be 7cf1 c9bd 9a66 b1bd
00000140: e3cc 93be c02f 6d3e c523 783d 2747 7bbd
00000150: 1c5e 00bf e7e3 b53e efd4 bf3d 6b07 573d
00000160: 2357 e8bd 2546 8f3d ac52 9fbd 94e5 a63d
00000170: 8104 bbbe e072 16be 551c 7dbe a2b8 803d
00000180: 5d08 18be fd79 023c edc0 873e b8e2 f43c
00000190: 80bd a43e 66db 1cbe 9d7a 3fbd 09fd 413c
000001a0: 9894 4dbe 050b c93d 67ee 1f3c c1f1 cabe
000001b0: d8ae e5bb 119d b8bc 582a 64be 9832 d43d
000001c0: 18d2 9b3e 0ecc 68be 2761 c3bc 3606 19bf
000001d0: 950f d13d dcf2 433e c92a 80bc 1f4e a53e
000001e0: 5463 92be f224 22be 28e2 11be 931c 483d
000001f0: c4be f53d 1353 a5be e2ee 0a3b 5637 9fbd
00000200: ddfa 2d3e 86eb 87be d7c4 9abd 125a 9dbb
00000210: 4a80 13be fa06 0c3d 200a 62be b413 8cbe
00000220: f306 2d3e a456 f03e 9b63 13be dc65 c93d
00000230: 0fdc abbe c5e6 e9bd 5ea4 29be d674 c2bc
00000240: c0ad bebe f683 b4be 16c9 843e f33e b6bd
00000250: 46a5 f2bd 8ca0 3c3d 0331 a73d 0993 93be
00000260: 4eff 8a3e 91da d43d 25c5 d83e 82eb 3e3d
00000270: 5783 79bd c4a0 073e 3355 543e c34f f5be
00000280: 62fc 353e 5a0a 2c3e 2a53 2b3c cc77 24be
00000290: c112 67bd 2c41 9b3e b7d8 863c 9344 87bd
000002a0: 140c 0bbd 1bbe 143e e9b3 3a3d 81f9 9cbd
000002b0: 6d5d 9ebe cf4c 7cbd 8641 0b3c aa4a f8bd
000002c0: 76d2 093d 3380 91bd ff35 fa3b 765d 003f
000002d0: 64ea 773d 0639 e9bd df55 283e 94a5 22be
000002e0: bc03 bf3d 02fe d1be 94a4 383e baf0 bb3d
000002f0: 8ef0 6cbe d2e0 9c3d b732 b13d 91f1 03be
00000300: b7f7 a73d 3ee4 4a3e cd08 91be 6b7f 66bd
00000310: 82f5 3abd 1a81 033e 6400 203e 9aff 213c
00000320: 86bf 03be a683 b3bd 0616 65bd f017 e23d
00000330: eaf6 0bbd 0f03 c23e 5c32 e93c 38b3 d5bd
00000340: 058f d63d 771d c3be 807d 10bd 6e8c 13be
00000350: 2046 96bd 9adb c93e b8ce babe 89aa f03c
00000360: ce57 02bd b60e 433e e296 05be e490 a53c
00000370: 712b 893c 4fc7 5abe 3f18 e7bd 43c7 653e
00000380: b3fa 1ebe 4f84 083e e6e7 703e 890f d6bd
00000390: e1ad ab3e a479 90bd aeb2 21bc 1f75 333e
000003a0: f223 b13e dace 6c3d 35a7 e9be ffb0 c13e
000003b0: 6f9f 823e 4b39 0abe bd18 0bbd f135 e43e
000003c0: dfed bd3d ee61 9b3e 51df aebc 6493 47be
000003d0: 322e 223c 5695 7cbe 83da ecbd ab44 ec3d
000003e0: 5de8 963d 4a50 c63e 6c1b a0be 68d1 09be
000003f0: 1068 4fbb 482b 20be cf02 b33e 3f45 1fbe
0.19916835 -0.01635637 -0.19197033 -0.06660063 0.31937623 0.014129031 -0.15127589 0.45010427
0.03414256 0.058101363 -0.026999505 -0.51251024 0.17967021 -0.08311052 0.10110453 0.053768873
0.09184677 0.12832992 0.042924773 -0.026106574 -0.12542264 -0.2715217 0.17388043 0.11355839
0.029998455 0.043696024 -0.26318404 0.08725658 -0.00095899386 -0.17814332 -0.38757828 -0.2320219
0.38439244 0.33330852 -0.07204655 0.29089046 0.18652706 0.38776165 -0.13298218 -0.115080245
0.09366798 -0.6916218 0.101967394 -0.13981138 0.20792793 -0.04365757 -0.22335625 -0.069422506
0.062017363 0.11352948 -0.21715383 -0.23704728 -0.36109293 0.101787746 0.08658559 0.1789759
-0.18665394 -0.5272639 0.2643571 0.07477372 -0.37466684 0.05271946 0.38074315 0.032691345
0.015415299 0.0098772915 0.044142768 -0.045605958 0.025033556 0.08719514 0.020061001 0.10075609
-0.4095372 -0.009119077 0.19803074 -0.060215943 -0.18729939 -0.18906689 -0.098605126 -0.08662148
-0.28867254 0.23162746 0.060580987 -0.061347153 -0.501436 0.35525438 0.09366786 0.05249731
-0.11344745 0.06995801 -0.0777944 0.08149257 -0.36526874 -0.14692259 -0.24717839 0.06285216
-0.1484694 0.007963655 0.26514378 0.029893264 0.32175827 -0.15318069 -0.046747793 0.011840113
-0.20076215 0.09816555 0.009761429 -0.3963757 -0.0070093684 -0.022535833 -0.22281778 0.103612125
0.30433726 -0.2273409 -0.023850037 -0.597751 0.1020805 0.19135612 -0.015645402 0.32286164
-0.28591406 -0.15834406 -0.14246428 0.048855375 0.11999276 -0.32289943 0.0021199514 -0.07774226
0.16990228 -0.26546878 -0.075570755 -0.004801997 -0.14404407 0.03418634 -0.22074175 -0.27358782
0.16897182 0.46941102 -0.14393465 0.09833881 -0.3356633 -0.11420969 -0.16566607 -0.023737352
-0.37241936 -0.35256928 0.25934666 -0.08898725 -0.1184793 0.046051547 0.08163645 -0.28823116
0.27147907 0.10393251 0.4233791 0.046611317 -0.06091627 0.13244921 0.20735626 -0.47912416
0.17772058 0.16800824 0.01045684 -0.16061324 -0.05641437 0.3032316 0.01646076 -0.06604876
-0.033947065 0.14525644 0.045581732 -0.076647766 -0.30930653 -0.061596688 0.008499509 -0.12123616
0.033647977 -0.0710453 0.0076358314 0.5014261 0.060526267 -0.113878295 0.16439007 -0.15883476
0.09326884 -0.41014105 0.18031532 0.09176774 -0.2313864 0.076600686 0.08652251 -0.12885119
0.08201545 0.1981363 -0.28327027 -0.05627386 -0.04564429 0.12842217 0.15625149 0.0098876
-0.12866029 -0.08765344 -0.055929206 0.11039722 -0.034171022 0.3789296 0.028466396 -0.10434574
0.104764976 -0.38108417 -0.035275936 -0.14409038 -0.07337594 0.39425355 -0.3648584 0.029378192
-0.03182202 0.1904858 -0.13045838 0.02021069 0.016744347 -0.21365093 -0.112839215 0.22439294
-0.15525322 0.13331722 0.23525962 -0.10452182 0.33531097 -0.07054451 -0.009869261 0.17525147
0.34597737 0.057814457 -0.4563538 0.3783035 0.25512263 -0.13498418 -0.03395914 0.44572404
0.09273886 0.30348152 -0.02134672 -0.19489819 0.009898709 -0.24666342 -0.11565115 0.11536535
0.073685385 0.3873313 -0.3127092 -0.13458788 -0.003164772 -0.1564151 0.3496308 -0.15553759

output.bias f4 [4]
00000000: 5b21 1b3d ef95 07bc 3641 a93c 763b 153d
0.037873607 -0.008275493 0.020660978 0.03643366
